model/dogberry_model.tflite (tflite, 123968 bytes, 15 tensors)

arith.constant11 f4 [58]
00000000: 0261 85b9 0a60 7d3c 8a46 cebc ee1f 11bd
00000010: 4c79 d33c a6a7 4bbd bc51 19bc c080 55bc
00000020: 3366 dfbb e0a4 aebc b43f 95bc 95d4 e1bc
00000030: b3e0 6cbc 521d 19bd 4bef c3bc d2a9 e9bc
00000040: 50fc cbbc 08ef 96bc f0ed e2bc 8de2 74bd
00000050: 73e9 d1bc 66f1 a7bc c7c5 d0bc 5391 c1bc
00000060: 4ac2 e5bc 8b1c c1bc 2e27 b3bc d734 ecbc
00000070: 3543 c2bc 3840 e4bc 5dbb c63c e8e2 5c3a
00000080: e9e2 0a3b 37dd c23c c368 a23c 222a 103c
00000090: ef3e 8ebb 7c55 28bb d58a 283d 18e3 cfbc
000000a0: 5910 98bc 5d47 ce3c 7a46 0e3b b1a5 803c
000000b0: 4d21 da3c 20d5 1f3c d615 00bd d053 da3c
000000c0: 0b99 023d 228b ab3c 3771 743c 7638 59bb
000000d0: e4d7 32bb 558e 02bd da07 433c 4871 bbbc
000000e0: 8347 0bbd 778b 85bc
-0.00025440013 0.015464792 -0.02518012 -0.03543084 0.025814675 -0.04972043 -0.009357866 -0.013031185
-0.006817603 -0.021318853 -0.018218853 -0.027567187 -0.014457869 -0.037381478 -0.023917815 -0.02852336
-0.024900585 -0.018424526 -0.027701348 -0.05978637 -0.025624013 -0.02050085 -0.025484933 -0.023628866
-0.028046746 -0.02357318 -0.021869268 -0.02883379 -0.023713687 -0.027862653 0.024259264 0.00084261457
0.0021192378 0.023787124 0.019825345 0.008799108 -0.0043409984 -0.0025685718 0.041148026 -0.025376841
-0.018562483 0.025180513 0.0021709488 0.015704008 0.026627207 0.009755403 -0.031270824 0.026651293
0.031884234 0.020940367 0.014919571 -0.0033145226 -0.0027289325 -0.03187402 0.011903727 -0.022881165
-0.034003746 -0.016301854

tfl.pseudo_qconst i1 [58, 128]
00000000: 1912 fee5 d445 05e3 0516 f981 58b4 e111
00000010: 222b d90b fb3e fce5 0d23 3735 e5a8 6021
00000020: ee35 e117 18bd d5e8 3fe3 45cf 1316 cafd
00000030: 2ad5 ca14 0600 f718 c5cb 1913 e7e4 0d22
00000040: 3fd7 e334 0529 1d1f c611 ddf2 df1c dbcc
00000050: d913 0bdd 2ca7 ecdf 3088 3edd b9b4 3603
00000060: c419 f72f cd0d 13bf e0e2 4347 023f ed04
00000070: 2ef5 c70a bae3 1eac d40d 332b 4c03 0127
00000080: 0e2b 44f3 c23b f4da 171e a9e0 45de f628
00000090: 4840 e339 2b31 beb5 d161 e6e2 22a0 2249
000000a0: bd26 0ae7 b1c8 27b6 0dd8 34ee 4d4b f308
000000b0: 1bf4 0705 42c7 c4cb 26ce 4abf 3912 af0b
000000c0: 4938 8af6 d74d 0011 c540 50f5 b2c2 d1d4
000000d0: c909 0d2c 3599 31d5 13fe 12e6 d8a7 3322
000000e0: 2c0c ab23 af4a b40d f736 7f29 0dfb e3bd
000000f0: 0f08 c03e ce27 61af dcc9 f5cc 36d1 062c
25 18 -2 -27 -44 69 5 -29
5 22 -7 -127 88 -76 -31 17
34 43 -39 11 -5 62 -4 -27
13 35 55 53 -27 -88 96 33
-18 53 -31 23 24 -67 -43 -24
63 -29 69 -49 19 22 -54 -3
42 -43 -54 20 6 0 -9 24
-59 -53 25 19 -25 -28 13 34
63 -41 -29 52 5 41 29 31
-58 17 -35 -14 -33 28 -37 -52
-39 19 11 -35 44 -89 -20 -33
48 -120 62 -35 -71 -76 54 3
-60 25 -9 47 -51 13 19 -65
-32 -30 67 71 2 63 -19 4
46 -11 -57 10 -70 -29 30 -84
-44 13 51 43 76 3 1 39
14 43 68 -13 -62 59 -12 -38
23 30 -87 -32 69 -34 -10 40
72 64 -29 57 43 49 -66 -75
-47 97 -26 -30 34 -96 34 73
-67 38 10 -25 -79 -56 39 -74
13 -40 52 -18 77 75 -13 8
27 -12 7 5 66 -57 -60 -53
38 -50 74 -65 57 18 -81 11
73 56 -118 -10 -41 77 0 17
-59 64 80 -11 -78 -62 -47 -44
-55 9 13 44 53 -103 49 -43
19 -2 18 -26 -40 -89 51 34
44 12 -85 35 -81 74 -76 13
-9 54 127 41 13 -5 -29 -67
15 8 -64 62 -50 39 97 -81
-36 -55 -11 -52 54 -47 6 44

tfl.pseudo_qconst1 i1 [58, 32] scale=0.009066812 zero_point=0
00000000: 0ef2 e1b2 0ef9 bcfe 481f e5f8 3f4b 21d7
00000010: e839 0bb3 3bd0 3250 4cb2 c615 e3c2 d420
00000020: 24bc ca9a 2927 8bc0 6e5b c2cd d85c 48a7
00000030: 2649 2489 0fc4 577f 4da2 e232 0582 15df
00000040: e20e 1411 08e3 2222 e4d7 05f4 1ddd de05
00000050: fadd 181a ed1c deea ec17 0c1f 191d 000f
00000060: f40e f50d 0ff5 1209 ecf3 f2f6 fee7 f110
00000070: fbf6 1214 ee13 f6ef f419 1505 0e0e 0a0a
00000080: c2b9 e636 defa 3add ccfc 1aaf 19d5 c104
00000090: 42d6 3f35 c93b 0fc3 ca3e 4b3f 5336 53c1
000000a0: 14ec fcea 0100 e6f1 1211 f7f5 161c 16df
000000b0: f118 09e1 1bf1 171d 22dc e70f ffe9 0409
000000c0: d33a 09f3 1db0 3c47 dac0 feec 4ead a8ee
000000d0: f9cc 5914 d11f bede e421 1f41 4438 e62f
000000e0: e3c5 e82d e906 1ed1 e0f7 16d2 06db dd10
000000f0: 32e1 2520 d425 19e1 db2d 3329 2c22 36c5
0.12693536 -0.12693536 -0.28107116 -0.7072113 0.12693536 -0.06346768 -0.6165432 -0.018133624
0.65281045 0.28107116 -0.24480392 -0.072534494 0.57120913 0.68001086 0.2992048 -0.37173927
-0.21760347 0.5168083 0.09973493 -0.6981445 0.5349419 -0.43520695 0.4533406 0.72534496
0.6890777 -0.7072113 -0.5258751 0.19040304 -0.26293755 -0.5621423 -0.39893973 0.29013798
0.32640523 -0.6165432 -0.48960784 -0.9248148 0.37173927 0.35360566 -1.060817 -0.58027595
0.9973493 0.82507986 -0.5621423 -0.4624074 -0.36267248 0.8341467 0.65281045 -0.8069462
0.34453884 0.6618773 0.32640523 -1.0789506 0.13600218 -0.54400873 0.78881264 1.1514851
0.6981445 -0.8522803 -0.27200437 0.4533406 0.04533406 -1.1424183 0.19040304 -0.2992048
-0.27200437 0.12693536 0.18133624 0.1541358 0.072534494 -0.26293755 0.3082716 0.3082716
-0.25387073 -0.37173927 0.04533406 -0.10880174 0.26293755 -0.3173384 -0.3082716 0.04533406
-0.05440087 -0.3173384 0.21760347 0.2357371 -0.17226942 0.25387073 -0.3082716 -0.19946986
-0.18133624 0.20853667 0.10880174 0.28107116 0.2266703 0.26293755 0.0 0.13600218
-0.10880174 0.12693536 -0.09973493 0.11786855 0.13600218 -0.09973493 0.16320261 0.08160131
-0.18133624 -0.11786855 -0.12693536 -0.09066812 -0.018133624 -0.2266703 -0.13600218 0.14506899
-0.04533406 -0.09066812 0.16320261 0.18133624 -0.16320261 0.17226942 -0.09066812 -0.1541358
-0.10880174 0.2266703 0.19040304 0.04533406 0.12693536 0.12693536 0.09066812 0.09066812
-0.5621423 -0.64374363 -0.2357371 0.48960784 -0.3082716 -0.05440087 0.5258751 -0.3173384
-0.4714742 -0.036267247 0.2357371 -0.7344118 0.2266703 -0.3898729 -0.57120913 0.036267247
0.5984096 -0.3808061 0.57120913 0.48054102 -0.49867466 0.5349419 0.13600218 -0.5530755
-0.48960784 0.5621423 0.68001086 0.57120913 0.75254536 0.48960784 0.75254536 -0.57120913
0.18133624 -0.18133624 -0.036267247 -0.19946986 0.009066812 0.0 -0.2357371 -0.13600218
0.16320261 0.1541358 -0.08160131 -0.09973493 0.19946986 0.25387073 0.19946986 -0.2992048
-0.13600218 0.21760347 0.08160131 -0.28107116 0.24480392 -0.13600218 0.20853667 0.26293755
0.3082716 -0.32640523 -0.2266703 0.13600218 -0.009066812 -0.20853667 0.036267247 0.08160131
-0.40800652 0.5258751 0.08160131 -0.11786855 0.26293755 -0.72534496 0.54400873 0.64374363
-0.34453884 -0.58027595 -0.018133624 -0.18133624 0.7072113 -0.75254536 -0.79787946 -0.16320261
-0.06346768 -0.4714742 0.8069462 0.18133624 -0.42614016 0.28107116 -0.5984096 -0.3082716
-0.25387073 0.2992048 0.28107116 0.5893428 0.6165432 0.50774145 -0.2357371 0.42614016
-0.26293755 -0.5349419 -0.21760347 0.40800652 -0.20853667 0.05440087 0.27200437 -0.42614016
-0.29013798 -0.08160131 0.19946986 -0.41707334 0.05440087 -0.33547205 -0.3173384 0.14506899
0.4533406 -0.28107116 0.33547205 0.29013798 -0.39893973 0.33547205 0.2266703 -0.28107116
-0.33547205 0.40800652 0.4624074 0.37173927 0.39893973 0.3082716 0.48960784 -0.5349419

arith.constant19 f4 [128]
00000000: 40c0 3a3d deb8 0d3c 6635 d13c f9ca 843b
00000010: e5c7 02bc 76fb 96bb e1b9 8b3a 764d 873c
00000020: 4eb4 e13b 706e 4ebc cc49 803d 53d1 e73d
00000030: 93e9 c33d e465 c13b 00bd c23c 9a7a a23c
00000040: 0dd7 b63c e0d0 803c 6bb2 bb3c 005e f13c
00000050: 338f f63c 4453 843d 29d6 44bc f63e 803d
00000060: 01d4 153c f2b6 7f3d 6033 e33c d5c5 5c3c
00000070: 68af 6fb9 95d8 cf3d 0cf0 9f3c be5d 493c
00000080: 4c0e a03c 6034 7bbc b429 263b e409 353c
00000090: 1d6e 5c3d c5a2 2e3c 81c1 1dbb d2b5 95bc
000000a0: 6f45 1e3c b5e6 f83b 6120 b43d 2160 c2ba
000000b0: 300f 773c 6785 143c 7313 533b e693 2abc
000000c0: 7b34 94bb 1f87 323c a571 fd3b 0499 a43b
000000d0: 028c 07bc 83b7 183d aa46 8a3c 9c47 0d3c
000000e0: 3c0e 313d c342 babc 0c33 0b3c 79e4 ca3d
000000f0: 74b5 a13c 32b2 05bb bd63 963d f793 343b
00000100: 8049 963c 1b48 1d3c 5eab e43d 62e8 d3bb
00000110: 2d89 a8bb f735 c43c 5f28 49bb 816d d13b
00000120: 906d 5d3d 7848 3c3c 5a49 103c f8f8 b03c
00000130: a0b4 563d 3ca1 9dbb 67be d33b 8628 793c
00000140: 73da bc3c 1121 e73b e3ec 803c 626c a73c
00000150: d508 0fbc 07f0 ae3d e174 cc3b f6b8 b43c
00000160: 63a6 583c fd40 e83d c4c7 3d3c b60d bb3c
00000170: e58a 443c 4de6 f83c d532 ad3c 46a4 8a3c
00000180: 39d6 ad3d 6f6c 463c 5472 653c bf0e 893d
00000190: 14b4 113c 35a1 753a 60fa 163c a98e 0a3b
000001a0: f0f1 3d3d d09d 94bc ec43 d83d d98d 983c
000001b0: 1ea2 743c 9ff5 e73c 5403 cb3c 5009 853b
000001c0: ed04 153d 8ccd d63d 2a13 073c ced7 3a3c
000001d0: 456c 473c de86 49bc 1bab e53d 5ed9 993d
000001e0: 1ad1 d93b fc02 1cbc 481d 1bbc 6b79 1abb
000001f0: e373 cf3c b490 773d 30df bfbc 74c4 0c3c
0.0455935 0.008650033 0.025538158 0.0040525165 -0.007982229 -0.004607613 0.0010660255 0.016516428
0.006887949 -0.012599573 0.06264076 0.11319222 0.09566035 0.005902039 0.023771763 0.019833852
0.022319341 0.0157246 0.022912225 0.029463768 0.03009758 0.06461194 -0.01201395 0.06262009
0.009144784 0.06243033 0.027734458 0.013474901 -0.0002285816 0.101487316 0.019523643 0.012290416
0.019538067 -0.015332311 0.0025354447 0.011049721 0.05381595 0.0106589245 -0.0024071636 -0.018275175
0.009660109 0.007595862 0.08795238 -0.0014829674 0.015079305 0.009065009 0.0032207638 -0.010411238
-0.0045228577 0.010896473 0.0077344947 0.0050231237 -0.008273127 0.037284385 0.016879398 0.00862303
0.043226466 -0.022736913 0.008496057 0.09906859 0.019739844 -0.0020400402 0.07343242 0.0027554014
0.018345594 0.009599711 0.11165498 -0.006466911 -0.0051433058 0.023951514 -0.003069423 0.0063912277
0.054059565 0.011491887 0.008806551 0.021603093 0.05241835 -0.0048104804 0.0064619067 0.015207415
0.023053383 0.0070535024 0.015737956 0.020437423 -0.008730133 0.08541875 0.006239519 0.022060852
0.013223263 0.113405205 0.011583272 0.022833686 0.011996006 0.030383253 0.021142403 0.016924035
0.08488125 0.0121108135 0.014004309 0.06692266 0.008893032 0.000937003 0.0092149675 0.002114216
0.046373308 -0.018141657 0.1055983 0.018622326 0.01493123 0.028315363 0.02478186 0.004059948
0.03638165 0.10488424 0.008244315 0.011403991 0.01217181 -0.012300221 0.112142764 0.075121626
0.0066472413 -0.009522196 -0.00946743 -0.0023570906 0.025323814 0.060440734 -0.023421854 0.00859176

arith.constant20 f4 [128]
00000000: b039 40bc ecc9 ab3c ea91 ba3c ad5c b1bc
00000010: 3da4 b4bc 4700 b33c b817 0abc fa86 8cbc
00000020: 659a 983c 8c9e b23c 5892 05b9 8b0e 693c
00000030: b2b6 7c3c 1c40 b2bc 9539 b4bc 9699 ac3c
00000040: 79b0 b33c 0aec b23c 898f b2bc 1983 b33c
00000050: 25c7 b63c 38bd 8f3c d437 b8bc 4f80 b4bc
00000060: d6c6 b1bc 2b32 b13c 9719 ad3c 16c0 b6bc
00000070: 965b 8b3c 550c d7ba 3eb2 c9bc 01ef b8bc
00000080: 0292 b8bc e7f6 9a3c 2763 90bc 393d b3bc
00000090: 1a3c 01bc eedc babc 24f7 08bc 2e45 afbc
000000a0: ec31 9d3c 6055 acbc ff50 1dbc 1d9d ad3c
000000b0: 50f9 9f3c a390 b43c fad8 b93c f972 ae3c
000000c0: cbfc b23c 1480 a83c 0fab a6bc c061 583c
000000d0: 57ed ba3c b904 90bc 44bd b13c 37aa 83bc
000000e0: 6542 8a3c 72ab 213c e284 6abc bb1e 5b3b
000000f0: 1664 b53c 2a98 b53c 7e5d 84bc d6c8 b8bc
00000100: 2d22 47bc 0e9b b23c 6830 aabc a71a b4bc
00000110: bdbf 873c f5d2 ba3c 1404 b2bc e169 b2bc
00000120: cca2 523c 2c50 ad3c 8371 b73c 21bb bc3c
00000130: 8137 153c b5fa aabc b539 b3bc caaa b3bc
00000140: 89e8 3a3c ed8f b73c 60d9 b6bc 058d 83bc
00000150: 7856 52bc 1c79 a2bc ab34 a5bc e853 a8bc
00000160: c369 b33c 5abb 443c d40d b53c ec55 adbc
00000170: 3be7 b93c 92d3 e83b 1953 9bbc 2c28 b33c
00000180: 406b 4d3c d04f b33c 84f9 bbbc b51b 24bb
00000190: 790a 603b 6ee0 aabc 388a b5bc 498c 4bbc
000001a0: 89fd 43bb 5af5 a83c 2800 b13b 3f9a acbc
000001b0: a944 ab3c c5f9 b53c 94e6 83bc d17d b0bc
000001c0: a27e 9a3c c1a8 3b3c bc93 acbc 8b02 b33c
000001d0: e2e2 ad3c 798f b43c f0b1 9dbb 9d6f 78bb
000001e0: 7b71 b7bc b059 b5bc d5bd b5bc a135 783c
000001f0: 3ebd ae3c a858 3abc af9d acbc 56f4 ab3c
-0.011732504 0.020970307 0.022774655 -0.021650637 -0.022050971 0.021850718 -0.008428507 -0.017154206
0.018628309 0.021804117 -0.00012738386 0.014224659 0.015424417 -0.021759085 -0.022000114 0.02106933
0.021934735 0.021841068 -0.021796959 0.021913098 0.022311756 0.017546281 -0.022487558 -0.022033839
-0.021701258 0.021630367 0.021130366 -0.02230839 0.017011445 -0.0016406873 -0.024621125 -0.022574903
-0.02253056 0.01891656 -0.017625405 -0.02187978 -0.0078878645 -0.022810426 -0.008359704 -0.021395292
0.019188844 -0.021036804 -0.0096018305 0.021193082 0.019528061 0.022041624 0.02268647 0.021295058
0.021849057 0.020568885 -0.020345239 0.013206899 0.02281825 -0.017580377 0.021696694 -0.016072376
0.016877363 0.009867536 -0.014313908 0.0033435065 0.022142451 0.022167284 -0.016157862 -0.022556704
-0.012154144 0.021802451 -0.020775035 -0.021985365 0.01657092 0.02280567 -0.02173046 -0.021779003
0.012856197 0.021156393 0.022392994 0.023038449 0.009107471 -0.0208715 -0.021878103 -0.021932025
0.01140798 0.022407496 -0.02232045 -0.016058454 -0.012837999 -0.01983314 -0.020166716 -0.020547822
0.021901017 0.012007559 0.02210132 -0.021159135 0.022693267 0.0071052993 -0.018960522 0.021869741
0.012537777 0.021888644 -0.022946127 -0.0025040929 0.003418593 -0.02085897 -0.022160634 -0.012423583
-0.0029905757 0.020624805 0.00540163 -0.021069644 0.020906763 0.022213826 -0.01610116 -0.021544369
0.018859211 0.011453808 -0.021066539 0.021851799 0.02122635 0.02204107 -0.0048124716 -0.0037908324
-0.022392979 -0.022137493 -0.022185246 0.015149505 0.021330472 -0.011373676 -0.021071283 0.020990532

arith.constant21 f4 [128]
00000000: d48f 7e3f e969 813f 68a7 833f 0a72 813f
00000010: b2be 823f 709e 823f fad4 7e3f 9154 823f
00000020: ddff 813f 071a 823f c5fb 803f 3df4 703f
00000030: fe27 783f 71b3 823f f99c 823f ade0 823f
00000040: 5ec9 823f 3492 823f 3851 823f c190 823f
00000050: beb5 823f f6bf 803f 29bc 823f bbea 803f
00000060: 76f0 813f e614 813f db76 823f 4b81 823f
00000070: 14f5 813f 5e74 733f 1acf 813f 3609 833f
00000080: 251b 823f fbc7 813f 6b03 7e3f 7487 823f
00000090: b3dd 803f d2a8 823f 0245 823f 897f 823f
000000a0: 18bb 803f 8ef9 813f 7406 7c3f 0fc9 823f
000000b0: 0700 823f 2f3e 823f d8f1 823f 5e8e 813f
000000c0: 61d9 823f 938a 823f e6a3 823f be54 803f
000000d0: f285 813f 0329 813f 8383 823f bf72 823f
000000e0: 196a 7e3f 9df9 803f 516a 823f 4449 733f
000000f0: 39b4 823f e6af 823f 5c02 803f 75e9 823f
00000100: bedd 813f f93c 823f 82b1 803f 9543 823f
00000110: ce4f 823f 0a52 833f 5a36 823f 07d9 823f
00000120: 61b4 803f b821 823f efb5 823f 3869 823f
00000130: 80b3 7c3f 8f3e 833f 04ab 823f ef95 823f
00000140: fb86 813f 16d2 803f b8e1 823f 0fe5 813f
00000150: 49e4 813f 0411 833f 24c0 823f 6bc3 813f
00000160: f123 823f 93d6 7b3f aff3 823f 4968 823f
00000170: 0db3 813f defc 813f b06b 803f d7a0 823f
00000180: b8df 7d3f dccf 813f 1f66 833f c190 783f
00000190: cbdd 803f 5be4 813f 6bb8 823f 461b 823f
000001a0: 16ce 7a3f 06d7 813f 1615 783f 515f 823f
000001b0: 059b 823f cfc2 823f e30e 823f a04f 823f
000001c0: 0dd4 803f 405e 753f 4a52 823f 428e 823f
000001d0: 5ab1 823f ee80 823f c5a6 743f 4ed3 763f
000001e0: fdd5 823f b69f 823f 1c43 823f 9596 823f
000001f0: 20b9 823f d79d 803f f1ec 813f 77f5 823f
0.99438214 1.0110446 1.0285463 1.0112927 1.0214446 1.0204601 0.99543726 1.0182058
1.0156208 1.0164193 1.0076834 0.9412268 0.96936023 1.0211011 1.0204154 1.0224816
1.0217702 1.0200868 1.0181036 1.0200425 1.0211713 1.0058582 1.0213672 1.0071634
1.0151508 1.0084503 1.0192522 1.0195707 1.0152917 0.9509944 1.0141327 1.0237186
1.0164534 1.0139154 0.99223965 1.0197587 1.0067657 1.020777 1.017731 1.0195171
1.0057096 1.0154283 0.98447347 1.0217608 1.0156258 1.0175227 1.0230055 1.0121572
1.0222589 1.019854 1.0206268 1.0025861 1.0119002 1.0090641 1.0196384 1.0191268
0.9938064 1.0076176 1.0188695 0.9503367 1.021125 1.020993 1.000072 1.0227495
1.0145795 1.0174857 1.0054171 1.0176874 1.0180604 1.0259411 1.0172837 1.0222481
1.0055047 1.016654 1.0211772 1.018836 0.98711395 1.0253466 1.020844 1.0202006
1.0119318 1.0064113 1.0225134 1.0148028 1.0147792 1.0239568 1.0214887 1.0137762
1.0167218 0.9837429 1.0230616 1.0188075 1.0132767 1.0155294 1.0032864 1.0205334
0.9916949 1.0141559 1.026554 0.97095877 1.0067686 1.0147814 1.021253 1.0164573
0.9797071 1.0143745 0.96907175 1.0185338 1.0203558 1.0215701 1.0160793 1.018055
1.0064713 0.9584694 1.0181363 1.0199664 1.0210373 1.0195596 0.9556697 0.96416175
1.0221554 1.020499 1.017673 1.0202204 1.0212746 1.0048169 1.0150434 1.023116

arith.constant22 f4 [128]
00000000: 6ede 673a 1c36 913c 7588 d83c f1f7 863c
00000010: ef8b b53c bf31 803c fcbf 023c 4464 9c3c
00000020: a9cb b63c f499 873c e869 ad3d 60a7 de3d
00000030: eb22 963d a6c0 a53c 55e6 a13c 0174 b13c
00000040: 391d ab3c 0949 a13c d362 963c 3c43 a13c
00000050: e785 aa3c fe26 773d b400 aa3c 63ba 563d
00000060: 3a51 873c 1be4 4f3d a8a8 863c d828 993c
00000070: 43b4 8e3c a593 b73d 36f9 be3c 5307 b43c
00000080: cb27 6a3c b148 833c 32a3 7a3c 354e 9f3c
00000090: 60d6 8b3d 4faa a93c b80d 643c ad55 873c
000000a0: 6299 da3c 51a5 7d3c c631 b13d 7104 ad3c
000000b0: 99af 6d3c afb0 983c 434c b03c c020 413c
000000c0: 4386 a93c e946 aa3c bc71 a73c 248e 953b
000000d0: 4c7d 393c f178 cc3c a497 9f3c 2ec4 a03c
000000e0: e695 073d cc19 7e3c 7dd4 9a3c cc02 cd3d
000000f0: e999 a73c 4182 a53c e9d4 b83c b699 b13c
00000100: 5903 833c 1eac 913c 487f da3d 8947 a43c
00000110: a6be a63c 4dd0 d43c eb1d 963c 8e6f a73c
00000120: 3aa3 703d 3533 903c e6bf b93c 76e7 843c
00000130: 7e4a 8c3d dc78 a33c e256 a23c 6962 a23c
00000140: 247a c83c c751 3d3c efe5 af3c 8b86 703c
00000150: c1e6 553c 43ae b93d c102 a43c 99ca 743c
00000160: 7680 833c 8f86 ab3d 45f6 ab3c c854 973c
00000170: d6b4 2a3c 1267 8b3c 6ae4 c73c a1b8 a53c
00000180: 2f45 b33d 2621 4f3c 428a be3c a330 a93d
00000190: ee88 c93b a3ba 573c a18a a73c 8188 733c
000001a0: 5f08 3e3c cdb7 753c ac1e ce3d 8a1c a73c
000001b0: 7277 9c3c e889 aa3c 5375 863c aaed 913c
000001c0: 333c 473d 8ac6 d73d ff91 863c a134 a23c
000001d0: 2525 8f3c 4492 b03c c655 ba3d 031c 763d
000001e0: 27db 8d3c 7201 a13c d97b 753c 5111 ad3c
000001f0: 8269 993c 782b 873d a5a4 3f3c 0202 b43c
0.0008845095 0.017725997 0.026432255 0.01647565 0.022161452 0.01564872 0.007980343 0.01909078
0.02231391 0.016552903 0.08467466 0.10871768 0.07330879 0.020233463 0.019763151 0.02166176
0.020887958 0.019688146 0.01835767 0.01968538 0.020815803 0.06033992 0.020752288 0.052423846
0.016518224 0.050754648 0.016437843 0.018696234 0.01741994 0.08963708 0.023312192 0.021976149
0.014291714 0.016025873 0.015297698 0.019446472 0.06827998 0.020711092 0.013919286 0.016520346
0.026684467 0.015481309 0.08652072 0.021120282 0.014507198 0.018638937 0.02152074 0.011787593
0.020693904 0.020785766 0.020439975 0.0045640636 0.011321377 0.024960013 0.019481488 0.019624796
0.03310194 0.01550908 0.01890015 0.10010299 0.020459132 0.020203711 0.022562461 0.02167974
0.015992807 0.017782267 0.10668808 0.020053642 0.02035458 0.025978232 0.018324813 0.020438936
0.058749415 0.017602542 0.022674512 0.01622365 0.06850146 0.019955091 0.01981682 0.019822316
0.024472304 0.011555142 0.021471946 0.014680515 0.013055504 0.09066441 0.020020844 0.014940881
0.016052466 0.083752744 0.020991454 0.018473044 0.010419091 0.017016921 0.024400908 0.02022964
0.0875343 0.012642181 0.023259286 0.0826123 0.0061503565 0.013167056 0.020451846 0.014864088
0.0115986755 0.014997435 0.10064444 0.02039935 0.019099925 0.020817712 0.016413366 0.017813522
0.048641395 0.10535915 0.016427038 0.019800486 0.017473767 0.02155412 0.09098391 0.060085308
0.017316414 0.01965401 0.014983141 0.021126421 0.018727068 0.06600088 0.011696969 0.021973614

tfl.pseudo_qconst2 i1 [128, 32]
00000000: ee00 f4f8 15fc ffc3 032a f1f2 dba7 e427
00000010: 44eb 2d07 f224 fa0c e77f 74d0 0be2 18fa
00000020: 1a96 01c0 e6d7 d7d6 af28 f38e ee10 d6b0
00000030: 7f26 64ff c403 14fe cfe3 7178 3ef8 4cc9
00000040: 2421 497f d404 51f0 91c4 1c54 3eb5 bd0f
00000050: 5ce7 da57 a820 e69b bf49 13cb fb48 24cd
00000060: 3a3a 8ed0 5993 f00d d617 a1ae 50f9 81f7
00000070: f04e 5812 5cfe 4e38 7806 680f 5c24 175f
00000080: d3bf c4de 1f02 54fe a230 ec9b f3a5 9c8e
00000090: 53d2 4914 c06e 3be7 d000 f970 7f47 4dc6
000000a0: a3af 7ff1 9257 641f a5be 2a16 6edc f01f
000000b0: 5c9b b869 b757 f28c 933e c40e 3165 68e3
000000c0: 7f0a 8bf6 0f91 c1de 1f4d a0a3 2565 a0c7
000000d0: 465c 1ff7 ebbc 405b 5ac0 47fc 3df1 3f04
000000e0: 5c6d d156 1a81 2638 a4f2 da06 bfaa 8e0d
000000f0: ae10 2935 30cc d4a8 fd60 47f3 013d dd6a
-18 0 -12 -8 21 -4 -1 -61
3 42 -15 -14 -37 -89 -28 39
68 -21 45 7 -14 36 -6 12
-25 127 116 -48 11 -30 24 -6
26 -106 1 -64 -26 -41 -41 -42
-81 40 -13 -114 -18 16 -42 -80
127 38 100 -1 -60 3 20 -2
-49 -29 113 120 62 -8 76 -55
36 33 73 127 -44 4 81 -16
-111 -60 28 84 62 -75 -67 15
92 -25 -38 87 -88 32 -26 -101
-65 73 19 -53 -5 72 36 -51
58 58 -114 -48 89 -109 -16 13
-42 23 -95 -82 80 -7 -127 -9
-16 78 88 18 92 -2 78 56
120 6 104 15 92 36 23 95
-45 -65 -60 -34 31 2 84 -2
-94 48 -20 -101 -13 -91 -100 -114
83 -46 73 20 -64 110 59 -25
-48 0 -7 112 127 71 77 -58
-93 -81 127 -15 -110 87 100 31
-91 -66 42 22 110 -36 -16 31
92 -101 -72 105 -73 87 -14 -116
-109 62 -60 14 49 101 104 -29
127 10 -117 -10 15 -111 -63 -34
31 77 -96 -93 37 101 -96 -57
70 92 31 -9 -21 -68 64 91
90 -64 71 -4 61 -15 63 4
92 109 -47 86 26 -127 38 56
-92 -14 -38 6 -65 -86 -114 13
-82 16 41 53 48 -52 -44 -88
-3 96 71 -13 1 61 -35 106

tfl.pseudo_qconst3 i1 [128, 32]
00000000: f9de c4ea 1817 15c1 7ffd c7f8 01b3 18dc
00000010: 6d25 2ac5 a109 0045 2c7a 5dfa 15ff f6bc
00000020: 7fe2 c5dd d8e6 f6d0 b13c 31c5 c56a d4d0
00000030: 0c57 533c 45f2 fd2c 0de5 4142 2cee 59dd
00000040: 7fd3 9bf2 cd72 4baf ef66 ba38 add4 d496
00000050: cf5c 2bf0 9c3f 73e0 0bd1 28eb baf6 d9d6
00000060: e53e 4cdb c1cf cb4a 2223 267f de2b 60ec
00000070: 08d6 c6df 88ef d9d3 044c 1e0f 08c1 2643
00000080: 26ef 0cd3 2555 4cb5 5692 fd71 e0bb 00e6
00000090: 3fe5 9ffc 5a56 84d9 c6eb d030 81da 9f2d
000000a0: a121 e6b7 a11d b951 1978 193b 8395 b9f1
000000b0: 7077 7f14 ce94 f624 abac f0ac f2b9 44ae
000000c0: 9a02 6e17 d70e 4164 04b6 0b4b ed81 0b60
000000d0: c7e1 c044 0b26 d61b 060b b9cf b3e4 2c13
000000e0: 95e8 4ba5 1e08 7878 b845 0d36 f801 6d38
000000f0: dfde 8159 d118 b9bc 09ea 4dca e1db fca9
-7 -34 -60 -22 24 23 21 -63
127 -3 -57 -8 1 -77 24 -36
109 37 42 -59 -95 9 0 69
44 122 93 -6 21 -1 -10 -68
127 -30 -59 -35 -40 -26 -10 -48
-79 60 49 -59 -59 106 -44 -48
12 87 83 60 69 -14 -3 44
13 -27 65 66 44 -18 89 -35
127 -45 -101 -14 -51 114 75 -81
-17 102 -70 56 -83 -44 -44 -106
-49 92 43 -16 -100 63 115 -32
11 -47 40 -21 -70 -10 -39 -42
-27 62 76 -37 -63 -49 -53 74
34 35 38 127 -34 43 96 -20
8 -42 -58 -33 -120 -17 -39 -45
4 76 30 15 8 -63 38 67
38 -17 12 -45 37 85 76 -75
86 -110 -3 113 -32 -69 0 -26
63 -27 -97 -4 90 86 -124 -39
-58 -21 -48 48 -127 -38 -97 45
-95 33 -26 -73 -95 29 -71 81
25 120 25 59 -125 -107 -71 -15
112 119 127 20 -50 -108 -10 36
-85 -84 -16 -84 -14 -71 68 -82
-102 2 110 23 -41 14 65 100
4 -74 11 75 -19 -127 11 96
-57 -31 -64 68 11 38 -42 27
6 11 -71 -49 -77 -28 44 19
-107 -24 75 -91 30 8 120 120
-72 69 13 54 -8 1 109 56
-33 -34 -127 89 -47 24 -71 -68
9 -22 77 -54 -31 -37 -4 -87

tfl.pseudo_qconst4 i1 [128, 32]
00000000: e0c2 84ab 0344 f988 570a bf08 0cf9 0bd3
00000010: 6622 54f5 a93e 5074 357f 67c3 f526 1ead
00000020: e481 952f f61f 5897 f0d7 cedb b6f2 89c2
00000030: 7efa 3628 dd09 e5cf 36a5 3f13 7644 572e
00000040: 26df 12f0 0ff3 3504 f113 f71d ed1e 81bc
00000050: 3e22 30c3 00ec 06ee cac7 d849 3f2f 0516
00000060: ea19 b69c 4b81 d8fa e922 c491 412c 9201
00000070: 592a 29dc 6e12 5012 62b0 03fa 0ae4 281e
00000080: 15fa dbcc 16d9 f5f3 f6ce 1cf1 d9e8 81d9
00000090: 02cb f70e daf2 38f2 dcff 4549 06cd ef04
000000a0: 394a 0b4b 70e5 15b0 c6c9 53c6 ddd6 81af
000000b0: 0ae1 2447 13e7 9bc0 4363 e84f 7dfa ebc7
000000c0: 70f1 9af7 1fd6 d1db 6637 b615 d97f c5ee
000000d0: 4049 f20b f703 4160 6006 2e0a f8de 2907
000000e0: ff1e 003d 47d2 ed1f 1816 f903 c7d3 810c
000000f0: 094a 2907 44cb 1546 f3e6 e2db 40e0 fc01
-32 -62 -124 -85 3 68 -7 -120
87 10 -65 8 12 -7 11 -45
102 34 84 -11 -87 62 80 116
53 127 103 -61 -11 38 30 -83
-28 -127 -107 47 -10 31 88 -105
-16 -41 -50 -37 -74 -14 -119 -62
126 -6 54 40 -35 9 -27 -49
54 -91 63 19 118 68 87 46
38 -33 18 -16 15 -13 53 4
-15 19 -9 29 -19 30 -127 -68
62 34 48 -61 0 -20 6 -18
-54 -57 -40 73 63 47 5 22
-22 25 -74 -100 75 -127 -40 -6
-23 34 -60 -111 65 44 -110 1
89 42 41 -36 110 18 80 18
98 -80 3 -6 10 -28 40 30
21 -6 -37 -52 22 -39 -11 -13
-10 -50 28 -15 -39 -24 -127 -39
2 -53 -9 14 -38 -14 56 -14
-36 -1 69 73 6 -51 -17 4
57 74 11 75 112 -27 21 -80
-58 -55 83 -58 -35 -42 -127 -81
10 -31 36 71 19 -25 -101 -64
67 99 -24 79 125 -6 -21 -57
112 -15 -102 -9 31 -42 -47 -37
102 55 -74 21 -39 127 -59 -18
64 73 -14 11 -9 3 65 96
96 6 46 10 -8 -34 41 7
-1 30 0 61 71 -46 -19 31
24 22 -7 3 -57 -45 -127 12
9 74 41 7 68 -53 21 70
-13 -26 -30 -37 64 -32 -4 1

tfl.pseudo_qconst5 i1 [128, 32]
00000000: a600 06f7 2718 29cd f7eb 09f3 05cf ddfd
00000010: 2a04 0f1b 901d de05 005d 7f30 0722 04b4
00000020: 15f8 ba13 d631 3cca c2d0 d2fc 020c d707
00000030: 7fca dc21 e639 3ce0 d4ed 6fef 0900 6dcb
00000040: 5262 e913 a2f6 1c3d f3ab adfa 8239 be91
00000050: 1d4d d10e f83c b4cb 97ec d47f f343 29cb
00000060: 3af3 ded4 2fd1 c3db 2046 0bc0 f23f 81d4
00000070: 1223 f0ff 7323 1446 3c9d fa1d 31f8 ed05
00000080: cbf7 cbf9 dee5 0eef 814f 18f7 e906 af15
00000090: 4a36 e514 f9d3 0edd e903 4a2a 1ce5 07f5
000000a0: d403 f7d7 0e4f 7f2b 9246 d93e 3cc9 fffe
000000b0: f4c9 3409 ff1f 0cae 2c42 1901 383d de18
000000c0: 76b7 c7f5 170b 07db 4feb de2c 0040 cc00
000000d0: 7ffa 12ff bab6 0342 2bd2 0b0d cc21 049c
000000e0: 63a0 cafa 3627 1214 42ed 4ee1 0b17 81dd
000000f0: 57e6 4ebf 48f8 3e38 1a0d d86b e9e6 5dad
-90 0 6 -9 39 24 41 -51
-9 -21 9 -13 5 -49 -35 -3
42 4 15 27 -112 29 -34 5
0 93 127 48 7 34 4 -76
21 -8 -70 19 -42 49 60 -54
-62 -48 -46 -4 2 12 -41 7
127 -54 -36 33 -26 57 60 -32
-44 -19 111 -17 9 0 109 -53
82 98 -23 19 -94 -10 28 61
-13 -85 -83 -6 -126 57 -66 -111
29 77 -47 14 -8 60 -76 -53
-105 -20 -44 127 -13 67 41 -53
58 -13 -34 -44 47 -47 -61 -37
32 70 11 -64 -14 63 -127 -44
18 35 -16 -1 115 35 20 70
60 -99 -6 29 49 -8 -19 5
-53 -9 -53 -7 -34 -27 14 -17
-127 79 24 -9 -23 6 -81 21
74 54 -27 20 -7 -45 14 -35
-23 3 74 42 28 -27 7 -11
-44 3 -9 -41 14 79 127 43
-110 70 -39 62 60 -55 -1 -2
-12 -55 52 9 -1 31 12 -82
44 66 25 1 56 61 -34 24
118 -73 -57 -11 23 11 7 -37
79 -21 -34 44 0 64 -52 0
127 -6 18 -1 -70 -74 3 66
43 -46 11 13 -52 33 4 -100
99 -96 -54 -6 54 39 18 20
66 -19 78 -31 11 23 -127 -35
87 -26 78 -65 72 -8 62 56
26 13 -40 107 -23 -26 93 -83

tfl.pseudo_qconst6 i1 [128, 128]
00000000: 76f8 07a1 15c2 ac11 0e43 7043 c130 2b15
00000010: 0ff5 d3ee f8c9 df24 fbc6 b49c 0955 9bcc
00000020: 6814 cb2c c1c5 06de 2208 8d20 dfe9 2170
00000030: 3b3e c2ec 451b 24b9 3f4b fc0d 153e 58c5
00000040: d5f7 7dc6 18cd bde8 7f01 2907 551c e309
00000050: 0c21 c0e2 b656 8aef f16a 0de9 4e4f a41a
00000060: 572f 49cb 3dcb 39f6 ebbb cfc9 480d 1407
00000070: 3540 2bec 1ddd ac19 190c e62a e102 b7ec
00000080: 0805 fc39 1be8 4211 51ff cedb dafd c7e7
00000090: 3adf 0c54 1fd9 f1fc bf4c 2d17 29cc e106
000000a0: ad23 19f3 f4a7 0012 2117 1117 f4ec ce8b
000000b0: 81a9 1123 03f0 f831 bbc6 e359 3107 e01e
000000c0: d723 40fd d937 26d2 d107 0c2f ff04 1bfb
000000d0: c7ad 10fc ecf6 32dd 03eb f409 121a 20c3
000000e0: 4903 cceb 02fc dade 0d3e ee09 152e ed1f
000000f0: c6b3 d0e9 d3ea 09e2 dab3 de33 37d6 0cf6
118 -8 7 -95 21 -62 -84 17
14 67 112 67 -63 48 43 21
15 -11 -45 -18 -8 -55 -33 36
-5 -58 -76 -100 9 85 -101 -52
104 20 -53 44 -63 -59 6 -34
34 8 -115 32 -33 -23 33 112
59 62 -62 -20 69 27 36 -71
63 75 -4 13 21 62 88 -59
-43 -9 125 -58 24 -51 -67 -24
127 1 41 7 85 28 -29 9
12 33 -64 -30 -74 86 -118 -17
-15 106 13 -23 78 79 -92 26
87 47 73 -53 61 -53 57 -10
-21 -69 -49 -55 72 13 20 7
53 64 43 -20 29 -35 -84 25
25 12 -26 42 -31 2 -73 -20
8 5 -4 57 27 -24 66 17
81 -1 -50 -37 -38 -3 -57 -25
58 -33 12 84 31 -39 -15 -4
-65 76 45 23 41 -52 -31 6
-83 35 25 -13 -12 -89 0 18
33 23 17 23 -12 -20 -50 -117
-127 -87 17 35 3 -16 -8 49
-69 -58 -29 89 49 7 -32 30
-41 35 64 -3 -39 55 38 -46
-47 7 12 47 -1 4 27 -5
-57 -83 16 -4 -20 -10 50 -35
3 -21 -12 9 18 26 32 -61
73 3 -52 -21 2 -4 -38 -34
13 62 -18 9 21 46 -19 31
-58 -77 -48 -23 -45 -22 9 -30
-38 -77 -34 51 55 -42 12 -10

tfl.pseudo_qconst7 i1 [128, 128]
00000000: e3f0 fa16 deff 1614 dd0f c3e4 7fe8 343d
00000010: 08f4 f1fb 1b5c ffff 112e f7f6 e2cc 3b4c
00000020: fff8 fa02 021f 4618 dc07 35ed 10d9 0f25
00000030: 09e0 deff ddf5 2805 8edc dbb2 19e3 b8fd
00000040: cce7 aee9 b501 ef03 1efa e41c a89f df1f
00000050: d52d ea12 03a0 25ff f808 1ad6 10e5 fc07
00000060: d9e7 e51c d4de 11f9 f6fe 1822 3ae4 fbf7
00000070: 489e 13f0 0e35 3a1f c215 e20f 2a39 f820
00000080: c03b 6ae1 8152 fdd9 5832 e1ef 12f1 0812
00000090: 3f0e 0fe9 e1ee a004 c3ec 00f9 08e3 ceda
000000a0: 4fe3 e0f7 421c 0501 062b 2dac e1fd 09fa
000000b0: daf7 cced 01a7 12f2 1429 2ee6 2651 e138
000000c0: fb0c ab1a 1a45 ad19 3a0e 0bfd 1808 cfe0
000000d0: 22bc 39db dfd2 08bd fa29 28c9 6a12 4b51
000000e0: e5f2 cdc1 bd27 edb8 a901 ec07 e877 b10c
000000f0: 3cfe fddc 48e1 22e2 0bf8 e444 23f3 beea
-29 -16 -6 22 -34 -1 22 20
-35 15 -61 -28 127 -24 52 61
8 -12 -15 -5 27 92 -1 -1
17 46 -9 -10 -30 -52 59 76
-1 -8 -6 2 2 31 70 24
-36 7 53 -19 16 -39 15 37
9 -32 -34 -1 -35 -11 40 5
-114 -36 -37 -78 25 -29 -72 -3
-52 -25 -82 -23 -75 1 -17 3
30 -6 -28 28 -88 -97 -33 31
-43 45 -22 18 3 -96 37 -1
-8 8 26 -42 16 -27 -4 7
-39 -25 -27 28 -44 -34 17 -7
-10 -2 24 34 58 -28 -5 -9
72 -98 19 -16 14 53 58 31
-62 21 -30 15 42 57 -8 32
-64 59 106 -31 -127 82 -3 -39
88 50 -31 -17 18 -15 8 18
63 14 15 -23 -31 -18 -96 4
-61 -20 0 -7 8 -29 -50 -38
79 -29 -32 -9 66 28 5 1
6 43 45 -84 -31 -3 9 -6
-38 -9 -52 -19 1 -89 18 -14
20 41 46 -26 38 81 -31 56
-5 12 -85 26 26 69 -83 25
58 14 11 -3 24 8 -49 -32
34 -68 57 -37 -33 -46 8 -67
-6 41 40 -55 106 18 75 81
-27 -14 -51 -63 -67 39 -19 -72
-87 1 -20 7 -24 119 -79 12
60 -2 -3 -36 72 -31 34 -30
11 -8 -28 68 35 -13 -66 -22

tfl.pseudo_qconst8 i1 [128, 128]
00000000: ffd3 1fd8 eddc 0c12 1320 9711 2ee8 c61e
00000010: 2e03 0630 4bf6 0809 ce1f fde7 def3 03e9
00000020: e2d8 00fe 11f2 04d9 26ed 0801 2cf6 0d07
00000030: 17f6 04f3 18ad f502 b6db e8c9 37f2 effc
00000040: 2a38 f1f1 2b27 e81b d642 1d0b bae6 3ae8
00000050: f11b 05f9 10c9 12f2 22ba 1d10 04dd 0ff5
00000060: b928 072d cd01 bd06 f12a 39f5 0f1e df30
00000070: 1def c7fd fc37 4781 c6e3 f408 4161 0634
00000080: 022a f522 4d2a 8101 d566 22fd 96f7 f4fd
00000090: 641b 2058 c0fc baf2 bf53 3d64 f399 05c7
000000a0: eefe c4c8 ff15 3ffb 2014 0225 e027 e4ca
000000b0: ecf5 d0bf e00f 49fa 0df4 ffe2 d84c 194d
000000c0: f205 36e6 b9b9 d8b0 05ba eff6 c4d5 3ce4
000000d0: 44ef e6a1 08bb 24ec f3be 1e10 380e eb38
000000e0: d34c f0e2 c6cd 5230 43fa cebb 2716 1416
000000f0: eefe 2204 10d1 472b 58f5 2afb 9144 466a
-1 -45 31 -40 -19 -36 12 18
19 32 -105 17 46 -24 -58 30
46 3 6 48 75 -10 8 9
-50 31 -3 -25 -34 -13 3 -23
-30 -40 0 -2 17 -14 4 -39
38 -19 8 1 44 -10 13 7
23 -10 4 -13 24 -83 -11 2
-74 -37 -24 -55 55 -14 -17 -4
42 56 -15 -15 43 39 -24 27
-42 66 29 11 -70 -26 58 -24
-15 27 5 -7 16 -55 18 -14
34 -70 29 16 4 -35 15 -11
-71 40 7 45 -51 1 -67 6
-15 42 57 -11 15 30 -33 48
29 -17 -57 -3 -4 55 71 -127
-58 -29 -12 8 65 97 6 52
2 42 -11 34 77 42 -127 1
-43 102 34 -3 -106 -9 -12 -3
100 27 32 88 -64 -4 -70 -14
-65 83 61 100 -13 -103 5 -57
-18 -2 -60 -56 -1 21 63 -5
32 20 2 37 -32 39 -28 -54
-20 -11 -48 -65 -32 15 73 -6
13 -12 -1 -30 -40 76 25 77
-14 5 54 -26 -71 -71 -40 -80
5 -70 -17 -10 -60 -43 60 -28
68 -17 -26 -95 8 -69 36 -20
-13 -66 30 16 56 14 -21 56
-45 76 -16 -30 -58 -51 82 48
67 -6 -50 -69 39 22 20 22
-18 -2 34 4 16 -47 71 43
88 -11 42 -5 -111 68 70 106

tfl.pseudo_qconst9 i1 [128, 128]
00000000: fa14 e00c 0c1e 131d effc 134c 3308 0924
00000010: d9f3 dde3 ef03 330b dcfb 0103 281d d2cc
00000020: e506 0800 3137 0afb e724 2721 f3ee 1526
00000030: f60e 1ce2 1922 1ad0 d60c e598 def9 06eb
00000040: ceda 30f2 efe7 33e9 13fc f7f4 3f19 060e
00000050: fe29 fefb f419 fd0a 0609 faf4 2af7 e40f
00000060: c1e1 272d f105 e102 e3f5 b9e3 0bfe 1fe1
00000070: fe2d 07b1 e7ee 811d 0f03 07e9 0513 e8da
00000080: 5af6 d411 02f9 f74f bee1 d7dd e10a 200a
00000090: 34f2 a212 ec2b b5eb 1833 ee0c 307f abd8
000000a0: ed70 dbdf 041f df03 3ee6 f607 912f 2029
000000b0: 39f1 dd17 c1f5 0ee4 50e7 f9de 1e73 3f43
000000c0: 011d c505 452b de9d c027 9a1b edf0 1f05
000000d0: 1fe6 1704 cbf5 1d13 f145 41ff f109 15f9
000000e0: 0d34 0409 f1be c14d e0e1 d4f1 dc20 371b
000000f0: 03e0 0440 b924 afe9 c908 097c 0806 c808
-6 20 -32 12 12 30 19 29
-17 -4 19 76 51 8 9 36
-39 -13 -35 -29 -17 3 51 11
-36 -5 1 3 40 29 -46 -52
-27 6 8 0 49 55 10 -5
-25 36 39 33 -13 -18 21 38
-10 14 28 -30 25 34 26 -48
-42 12 -27 -104 -34 -7 6 -21
-50 -38 48 -14 -17 -25 51 -23
19 -4 -9 -12 63 25 6 14
-2 41 -2 -5 -12 25 -3 10
6 9 -6 -12 42 -9 -28 15
-63 -31 39 45 -15 5 -31 2
-29 -11 -71 -29 11 -2 31 -31
-2 45 7 -79 -25 -18 -127 29
15 3 7 -23 5 19 -24 -38
90 -10 -44 17 2 -7 -9 79
-66 -31 -41 -35 -31 10 32 10
52 -14 -94 18 -20 43 -75 -21
24 51 -18 12 48 127 -85 -40
-19 112 -37 -33 4 31 -33 3
62 -26 -10 7 -111 47 32 41
57 -15 -35 23 -63 -11 14 -28
80 -25 -7 -34 30 115 63 67
1 29 -59 5 69 43 -34 -99
-64 39 -102 27 -19 -16 31 5
31 -26 23 4 -53 -11 29 19
-15 69 65 -1 -15 9 21 -7
13 52 4 9 -15 -66 -63 77
-32 -31 -44 -15 -36 32 55 27
3 -32 4 64 -71 36 -81 -23
-55 8 9 124 8 6 -56 8
