model/shakespeare_model.tflite (tflite, 131192 bytes, 15 tensors)

arith.constant11 f4 [99]
0	0xbeb1986f	-0.3468661
1	0x3f6efb3a	0.9335209
2	0xbf2f65ef	-0.68514913
3	0xbcfd0abf	-0.030888913
4	0xbf64bd0a	-0.8935095
5	0xbd55ce60	-0.052198768
6	0x3da6799e	0.081286654
7	0xbf3a393c	-0.7274358
8	0x3dc790bb	0.09744402
9	0xbe258b0f	-0.16166328
10	0x3f3f46ef	0.7471761
11	0xbf384023	-0.71972865
12	0xbc57dea8	-0.013175644
13	0x3db01f20	0.085996866
14	0x3d46a879	0.04850051
15	0xbf4caf2a	-0.7995478
16	0x3d416666	0.047216795
17	0x3cb4c76b	0.022067746
18	0xbd889847	-0.066696696
19	0xbf3c752e	-0.736163
20	0xbf5c9c6f	-0.861762
21	0xbef0e5b1	-0.4705024
22	0xbf4a2748	-0.7896619
23	0xbf3d5277	-0.73953956
24	0xbd4d64d5	-0.05014499
25	0xbe1cd7ee	-0.15316746
26	0x3ee82abc	0.45345104
27	0x3cac8df0	0.021063775
28	0x3f1109fe	0.5665587
29	0x3e9e91d4	0.30970633
30	0x3e26317d	0.16229816
31	0xbe3352cb	-0.17512052
32	0x3e70b64b	0.23507039
33	0x3d5897a9	0.05287901
34	0xbd16aa64	-0.03678359
35	0x3f23e6dd	0.64024144
36	0x3e02419e	0.12720343
37	0x3e1518fe	0.14560315
38	0xbe825246	-0.25453395
39	0xbd07c484	-0.033146396
40	0xbc589cf6	-0.013221016
41	0x3d8a8d05	0.067651786
42	0xbe9b227e	-0.30299753
43	0x3ded48ca	0.11586149
44	0xbed1748f	-0.4090924
45	0x3ded58c8	0.11589199
46	0xbd4709d0	-0.048593342
47	0x3ef8ba90	0.48579836
48	0x3ce6b0d3	0.028160488
49	0xbe8480c5	-0.25879493
50	0x3cd797a5	0.026317427
51	0x3da1df2f	0.07903897
52	0xbec376c6	-0.38176554
53	0x3d49477c	0.04914044
54	0x3eb9b0fb	0.36267838
55	0x3d937b5b	0.072012626
56	0xbe4c5691	-0.19954897
57	0xbe0df8b0	-0.13864398
58	0xbe180938	-0.14847267
59	0xbda205cf	-0.07911264
60	0xbe7bed85	-0.24602325
61	0x3e4a6a0c	0.19767016
62	0xbe5aa123	-0.21350531
63	0xbe921616	-0.28532475
64	0xbeb2e805	-0.34942642
65	0x3e21561a	0.15755501
66	0x3e0bd949	0.13657106
67	0xbe977f1e	-0.2958917
68	0x3d592e41	0.053022627
69	0xbe4c2fad	-0.19940062
70	0xbe2f2cc7	-0.17106925
71	0xbe46b255	-0.19403966
72	0xbe3fec86	-0.1874257
73	0x3eb54dfc	0.3541106
74	0x3e23c102	0.15991595
75	0xbe77a78a	-0.24185005
76	0x3d7d3d38	0.06182596
77	0xbebb8b6d	-0.3662981
78	0xbeb8ae7a	-0.36070615
79	0xbf59ab75	-0.8502725
80	0xbe15902b	-0.14605777
81	0x3dc2c8dc	0.09510967
82	0x3f48dafd	0.7845915
83	0x3ec9f959	0.3944805
84	0xbf3f27f0	-0.74670315
85	0x3ec11136	0.37708443
86	0x3d2e6d7f	0.042584892
87	0x3f30c765	0.6905425
88	0x3f255f1f	0.6459827
89	0xbe0a205c	-0.13488907
90	0x3dc69d13	0.09697928
91	0xbf40d512	-0.7532512
92	0x3ede14e7	0.43375322
93	0xbf36fdf5	-0.7148126
94	0x3bfdd649	0.007746492
95	0x3ddf363d	0.10899017
96	0xbd5111f3	-0.05104251
97	0xbeae72a0	-0.34071827
98	0x3e1349c9	0.14383616

tfl.pseudo_qconst i1 [99, 128]
0	0x0a	10
1	0xfc	-4
2	0x1e	30
3	0xdb	-37
4	0x05	5
5	0xf4	-12
6	0x1a	26
7	0xfb	-5
8	0x12	18
9	0x0f	15
10	0x13	19
11	0xf6	-10
12	0x03	3
13	0xde	-34
14	0x23	35
15	0x0e	14
16	0x17	23
17	0x0a	10
18	0xf2	-14
19	0x08	8
20	0x01	1
21	0x0b	11
22	0xee	-18
23	0x36	54
24	0xf1	-15
25	0xe9	-23
26	0xff	-1
27	0x03	3
28	0x19	25
29	0xba	-70
30	0x23	35
31	0x06	6
32	0x27	39
33	0xf4	-12
34	0xf7	-9
35	0x08	8
36	0x58	88
37	0x2a	42
38	0xfe	-2
39	0x2d	45
40	0x0c	12
41	0x81	-127
42	0x2f	47
43	0x13	19
44	0xf2	-14
45	0xc6	-58
46	0x0f	15
47	0x00	0
48	0x09	9
49	0x08	8
50	0x3c	60
51	0x02	2
52	0x0d	13
53	0xf6	-10
54	0x0a	10
55	0xf6	-10
56	0x07	7
57	0x0f	15
58	0xf7	-9
59	0x17	23
60	0x0b	11
61	0x28	40
62	0xe5	-27
63	0xeb	-21
64	0xf5	-11
65	0xfe	-2
66	0x04	4
67	0xf4	-12
68	0xf2	-14
69	0x02	2
70	0xfa	-6
71	0xdc	-36
72	0x10	16
73	0x20	32
74	0xff	-1
75	0x40	64
76	0xf3	-13
77	0x06	6
78	0x1f	31
79	0xf9	-7
80	0x05	5
81	0xff	-1
82	0x0e	14
83	0x03	3
84	0x0c	12
85	0xf7	-9
86	0xfa	-6
87	0x07	7
88	0x20	32
89	0xee	-18
90	0xf3	-13
91	0xe7	-25
92	0x06	6
93	0x02	2
94	0x1d	29
95	0x07	7
96	0xe5	-27
97	0x3c	60
98	0x2b	43
99	0xfb	-5
100	0xe5	-27
101	0xee	-18
102	0x04	4
103	0xe6	-26
104	0x09	9
105	0xfc	-4
106	0x01	1
107	0xf4	-12
108	0xd1	-47
109	0xf9	-7
110	0x06	6
111	0xff	-1
112	0xec	-20
113	0x1e	30
114	0xe7	-25
115	0xca	-54
116	0xf1	-15
117	0x00	0
118	0xfa	-6
119	0x17	23
120	0x05	5
121	0xff	-1
122	0xf2	-14
123	0xd5	-43
124	0xf9	-7
125	0xeb	-21
126	0xe2	-30
127	0xdf	-33
128	0x00	0
129	0xf8	-8
130	0x25	37
131	0xcf	-49
132	0x25	37
133	0xef	-17
134	0x28	40
135	0xe4	-28
136	0x23	35
137	0x1b	27
138	0x50	80
139	0xeb	-21
140	0xe4	-28
141	0xe1	-31
142	0x15	21
143	0x13	19
144	0xf3	-13
145	0x11	17
146	0x15	21
147	0x18	24
148	0x07	7
149	0x17	23
150	0xe5	-27
151	0x7f	127
152	0xf5	-11
153	0xe6	-26
154	0xf1	-15
155	0xf6	-10
156	0x15	21
157	0xfc	-4
158	0x37	55
159	0x0c	12
160	0x3e	62
161	0xf7	-9
162	0xd1	-47
163	0x1c	28
164	0x46	70
165	0x4d	77
166	0xf9	-7
167	0x3e	62
168	0x14	20
169	0x07	7
170	0x3e	62
171	0x29	41
172	0x11	17
173	0xb0	-80
174	0x18	24
175	0x09	9
176	0x68	104
177	0xf7	-9
178	0x5d	93
179	0xdf	-33
180	0x26	38
181	0xde	-34
182	0x17	23
183	0xd0	-48
184	0x0b	11
185	0x00	0
186	0x12	18
187	0x3b	59
188	0x19	25
189	0x2c	44
190	0xd8	-40
191	0x06	6
192	0xf8	-8
193	0xec	-20
194	0xfa	-6
195	0xfc	-4
196	0x1e	30
197	0xfa	-6
198	0x04	4
199	0xd3	-45
200	0x21	33
201	0x19	25
202	0x08	8
203	0x11	17
204	0xd1	-47
205	0x02	2
206	0x13	19
207	0xf8	-8
208	0x17	23
209	0xfe	-2
210	0x13	19
211	0x07	7
212	0x1f	31
213	0xf0	-16
214	0xf9	-7
215	0x0c	12
216	0x38	56
217	0xe4	-28
218	0xeb	-21
219	0xda	-38
220	0x05	5
221	0xf1	-15
222	0x36	54
223	0x02	2
224	0x04	4
225	0x16	22
226	0x4e	78
227	0x1d	29
228	0xdf	-33
229	0xd8	-40
230	0x0c	12
231	0xc8	-56
232	0x11	17
233	0xe9	-23
234	0x00	0
235	0xf4	-12
236	0xcf	-49
237	0xf9	-7
238	0x05	5
239	0xfd	-3
240	0xf6	-10
241	0x2a	42
242	0xe7	-25
243	0xbb	-69
244	0xf8	-8
245	0x03	3
246	0xf6	-10
247	0x27	39
248	0xfc	-4
249	0x0e	14
250	0xef	-17
251	0xbc	-68
252	0xf6	-10
253	0xdf	-33
254	0xcf	-49
255	0x0e	14

tfl.pseudo_qconst1 i1 [99, 32] scale=0.09828592 zero_point=0
0	0xfb	-0.4914296
1	0x39	5.6022973
2	0x0b	1.0811452
3	0x02	0.19657184
4	0xf9	-0.68800145
5	0xfc	-0.39314368
6	0xf2	-1.3760029
7	0x04	0.39314368
8	0x08	0.78628737
9	0xfb	-0.4914296
10	0x81	-12.482312
11	0xf9	-0.68800145
12	0xfc	-0.39314368
13	0x05	0.4914296
14	0x01	0.09828592
15	0x05	0.4914296
16	0x29	4.0297227
17	0x00	0.0
18	0xfa	-0.58971554
19	0xf9	-0.68800145
20	0xf6	-0.9828592
21	0xe2	-2.9485776
22	0xf3	-1.277717
23	0xf9	-0.68800145
24	0xef	-1.6708606
25	0x0f	1.4742888
26	0x03	0.29485777
27	0x08	0.78628737
28	0xfd	-0.29485777
29	0x06	0.58971554
30	0xfa	-0.58971554
31	0x03	0.29485777
32	0xe4	-2.7520058
33	0x5f	9.337162
34	0xff	-0.09828592
35	0x00	0.0
36	0xff	-0.09828592
37	0x00	0.0
38	0xc2	-6.093727
39	0x04	0.39314368
40	0x01	0.09828592
41	0x0e	1.3760029
42	0xc2	-6.093727
43	0x00	0.0
44	0x00	0.0
45	0xf5	-1.0811452
46	0x00	0.0
47	0x02	0.19657184
48	0x5a	8.845733
49	0x00	0.0
50	0x00	0.0
51	0x00	0.0
52	0x02	0.19657184
53	0xa5	-8.944018
54	0x01	0.09828592
55	0x00	0.0
56	0x00	0.0
57	0x01	0.09828592
58	0x00	0.0
59	0xff	-0.09828592
60	0x00	0.0
61	0xff	-0.09828592
62	0x01	0.09828592
63	0x00	0.0
64	0x02	0.19657184
65	0xdc	-3.5382931
66	0x18	2.3588622
67	0x0b	1.0811452
68	0xf5	-1.0811452
69	0xfb	-0.4914296
70	0x06	0.58971554
71	0xee	-1.7691466
72	0xf0	-1.5725747
73	0x04	0.39314368
74	0x12	1.7691466
75	0xf1	-1.4742888
76	0xf7	-0.8845733
77	0xf4	-1.1794311
78	0x13	1.8674325
79	0x07	0.68800145
80	0xe6	-2.555434
81	0xfc	-0.39314368
82	0xf6	-0.9828592
83	0x0a	0.9828592
84	0xea	-2.1622903
85	0x15	2.0640044
86	0xf9	-0.68800145
87	0x01	0.09828592
88	0xf1	-1.4742888
89	0x0b	1.0811452
90	0xf1	-1.4742888
91	0x08	0.78628737
92	0x04	0.39314368
93	0x08	0.78628737
94	0xff	-0.09828592
95	0x05	0.4914296
96	0x07	0.68800145
97	0x0c	1.1794311
98	0x01	0.09828592
99	0xf9	-0.68800145
100	0xf4	-1.1794311
101	0x0a	0.9828592
102	0xec	-1.9657184
103	0x06	0.58971554
104	0x08	0.78628737
105	0xdd	-3.4400072
106	0xf6	-0.9828592
107	0xf1	-1.4742888
108	0xf9	-0.68800145
109	0xf1	-1.4742888
110	0x07	0.68800145
111	0xf2	-1.3760029
112	0x04	0.39314368
113	0x06	0.58971554
114	0xf5	-1.0811452
115	0x01	0.09828592
116	0x19	2.457148
117	0xfb	-0.4914296
118	0x11	1.6708606
119	0xfa	-0.58971554
120	0xf9	-0.68800145
121	0xf1	-1.4742888
122	0x01	0.09828592
123	0x0b	1.0811452
124	0x00	0.0
125	0x07	0.68800145
126	0xde	-3.3417213
127	0x05	0.4914296
128	0x0a	0.9828592
129	0xf7	-0.8845733
130	0x07	0.68800145
131	0x04	0.39314368
132	0xff	-0.09828592
133	0xfc	-0.39314368
134	0x07	0.68800145
135	0xfc	-0.39314368
136	0xfe	-0.19657184
137	0x02	0.19657184
138	0x07	0.68800145
139	0xfb	-0.4914296
140	0xf9	-0.68800145
141	0xfd	-0.29485777
142	0x05	0.4914296
143	0xfa	-0.58971554
144	0xf7	-0.8845733
145	0xfe	-0.19657184
146	0x00	0.0
147	0x02	0.19657184
148	0xfa	-0.58971554
149	0x07	0.68800145
150	0x02	0.19657184
151	0x01	0.09828592
152	0xfd	-0.29485777
153	0x05	0.4914296
154	0xfd	-0.29485777
155	0x07	0.68800145
156	0x01	0.09828592
157	0x02	0.19657184
158	0xfb	-0.4914296
159	0x00	0.0
160	0xf0	-1.5725747
161	0x21	3.2434354
162	0xfd	-0.29485777
163	0x03	0.29485777
164	0xf5	-1.0811452
165	0xed	-1.8674325
166	0xf0	-1.5725747
167	0x06	0.58971554
168	0x14	1.9657184
169	0x0c	1.1794311
170	0xd6	-4.128009
171	0xfb	-0.4914296
172	0x04	0.39314368
173	0xf0	-1.5725747
174	0xf1	-1.4742888
175	0x11	1.6708606
176	0x24	3.5382931
177	0x02	0.19657184
178	0xf8	-0.78628737
179	0x06	0.58971554
180	0x0e	1.3760029
181	0xce	-4.914296
182	0xed	-1.8674325
183	0xf2	-1.3760029
184	0xf8	-0.78628737
185	0x19	2.457148
186	0x04	0.39314368
187	0x04	0.39314368
188	0x01	0.09828592
189	0x04	0.39314368
190	0x01	0.09828592
191	0x05	0.4914296
192	0x06	0.58971554
193	0xf8	-0.78628737
194	0x06	0.58971554
195	0x0a	0.9828592
196	0xff	-0.09828592
197	0xfd	-0.29485777
198	0xfb	-0.4914296
199	0xfc	-0.39314368
200	0xff	-0.09828592
201	0x01	0.09828592
202	0x0a	0.9828592
203	0xf9	-0.68800145
204	0xfd	-0.29485777
205	0xf4	-1.1794311
206	0x0c	1.1794311
207	0xf8	-0.78628737
208	0xfa	-0.58971554
209	0xfd	-0.29485777
210	0x04	0.39314368
211	0x08	0.78628737
212	0xf8	-0.78628737
213	0x05	0.4914296
214	0x02	0.19657184
215	0x0b	1.0811452
216	0xfb	-0.4914296
217	0xf5	-1.0811452
218	0xfe	-0.19657184
219	0x0a	0.9828592
220	0x03	0.29485777
221	0xf8	-0.78628737
222	0x02	0.19657184
223	0x00	0.0
224	0x00	0.0
225	0x00	0.0
226	0x00	0.0
227	0x00	0.0
228	0x00	0.0
229	0x00	0.0
230	0x00	0.0
231	0x00	0.0
232	0x00	0.0
233	0x00	0.0
234	0x00	0.0
235	0x00	0.0
236	0x00	0.0
237	0x00	0.0
238	0x00	0.0
239	0x00	0.0
240	0x00	0.0
241	0x00	0.0
242	0x00	0.0
243	0x00	0.0
244	0x00	0.0
245	0x00	0.0
246	0x00	0.0
247	0x00	0.0
248	0x00	0.0
249	0x00	0.0
250	0x00	0.0
251	0x00	0.0
252	0x00	0.0
253	0x00	0.0
254	0x00	0.0
255	0x00	0.0

arith.constant19 f4 [128]
0	0xbf281fef	-0.65673727
1	0x3e135139	0.14386453
2	0x3f9bbe49	1.2167445
3	0x3f1b263b	0.6060521
4	0xbf123c8a	-0.57123625
5	0xbf62e136	-0.88624895
6	0xbd8e389a	-0.0694439
7	0x3f8633b4	1.0484529
8	0x3cc3ab1a	0.023885299
9	0x3f52b4c8	0.823071
10	0x3f38f80f	0.7225351
11	0xbe2320e8	-0.15930521
12	0x3dab848d	0.083748914
13	0x3c5af7f0	0.013364777
14	0x3fa048fe	1.2522275
15	0xbf97d91c	-1.1863132
16	0x3ea5d81f	0.3239145
17	0xbe84ff49	-0.25976017
18	0xbfec02ff	-1.8438414
19	0xbf8f05fa	-1.1173699
20	0xbe949bc2	-0.29025084
21	0xbd959c54	-0.07305208
22	0xbf8b1433	-1.0865539
23	0xbf17eb17	-0.59343094
24	0x3f852c7a	1.0404198
25	0xbf034de9	-0.51290756
26	0xbcfcfd97	-0.03088264
27	0x3f44f7aa	0.76940405
28	0xbe9d985d	-0.30780306
29	0xbee7c491	-0.45267156
30	0xbea48fa7	-0.32140848
31	0xbf9c63b7	-1.221793
32	0x3f01d720	0.5071888
33	0xbeb68d5b	-0.3565472
34	0xbf45dc3c	-0.77289176
35	0x3f784619	0.9698196
36	0xbffb1627	-1.9616135
37	0x3f785b20	0.97014046
38	0xbf260673	-0.6485359
39	0x3fe0370d	1.75168
40	0xbd9393d0	-0.07205927
41	0x3f6770df	0.904066
42	0xbf48c820	-0.78430367
43	0xbe5cc4b3	-0.2155941
44	0xbf4b4ac0	-0.79410934
45	0x3f72a0bf	0.9477653
46	0xbf191616	-0.59799325
47	0x3f123925	0.57118446
48	0xbef4822c	-0.47755563
49	0x3f662d1d	0.8991259
50	0xbfe1ebfb	-1.765014
51	0xbf57015a	-0.8398644
52	0x3eb0d838	0.34539962
53	0x3eecf0d0	0.46277475
54	0xbfac1e8f	-1.3446826
55	0xbf2bdda9	-0.671351
56	0xbfc96d27	-1.5736436
57	0x3f524034	0.82129216
58	0xbecbdaf9	-0.398155
59	0xbf795c06	-0.9740604
60	0xbd9f42cf	-0.077764146
61	0x3eb816f8	0.35955024
62	0x3e36986f	0.17831586
63	0xbfbdee64	-1.4838376
64	0xbf4aa6c2	-0.791607
65	0xbed267e6	-0.41094893
66	0xbe497cee	-0.19676563
67	0xbf74a2a9	-0.955607
68	0x3f08db0a	0.5345923
69	0x3f40cfd2	0.7531711
70	0x3ef6d50c	0.48209417
71	0x3f321549	0.6956373
72	0x3f969227	1.1763352
73	0xbee0a9ad	-0.43879452
74	0xbeaf21b8	-0.34205413
75	0xbfbedfc3	-1.4912037
76	0xbf29526c	-0.6614139
77	0xbf7e1d10	-0.99263096
78	0x3eb8b25e	0.36073583
79	0xbde30d39	-0.110865064
80	0xbd74cbe9	-0.059764776
81	0xbd626851	-0.055275265
82	0xbdcfa937	-0.10139697
83	0x3eef6616	0.46757573
84	0x3e51b9e3	0.20481066
85	0xbf586800	-0.8453369
86	0x3e22dca8	0.15904486
87	0xbe5a83a9	-0.21339287
88	0xbeb6a3e3	-0.3567191
89	0x3edc68b8	0.43048644
90	0x3c9f2b0e	0.01942971
91	0x3f79b3f5	0.9754022
92	0xbf7752a4	-0.96610475
93	0xbf133d76	-0.57515657
94	0x3e0e68d3	0.13907175
95	0xbdf503bf	-0.11963605
96	0x3e7f4ec4	0.2493239
97	0x3f8e7ed4	1.1132455
98	0x3efe85a8	0.49711347
99	0x3f894bdc	1.0726275
100	0xbf9e8f70	-1.2387524
101	0x3ee2e061	0.44311813
102	0xbf9fe8aa	-1.2492878
103	0xbfd2c6fd	-1.6466976
104	0x3f92eef0	1.1479168
105	0x3ecbbccd	0.3979248
106	0xbf3be6dc	-0.7339914
107	0xbfce6224	-1.61237
108	0xbeb3af7c	-0.3509482
109	0x3ea9bb9d	0.3315095
110	0xc011e64c	-2.2796812
111	0xbf848763	-1.0353817
112	0xbe92e264	-0.28688347
113	0x3f3fd2c5	0.74930984
114	0xbe5a0b3f	-0.21293353
115	0x3e9de5ef	0.30839488
116	0xbf8bb595	-1.091479
117	0xbf85d5f5	-1.045592
118	0x3dfff982	0.12498762
119	0x3f4e9b7f	0.8070602
120	0x3f82ba82	1.0213168
121	0x3f1fe7ca	0.6246306
122	0x3f6c86c3	0.9239313
123	0x3ec4e038	0.38452315
124	0xbe84cf57	-0.25939438
125	0xbe7ee52a	-0.24892107
126	0xbe6f88d7	-0.23392044
127	0xc009a88b	-2.150912

arith.constant20 f4 [128]
0	0xbe3a25d0	-0.18178487
1	0x3e49b718	0.19698751
2	0xbe577306	-0.21039972
3	0xbfa4dec4	-1.2880483
4	0xba01922e	-0.0004942742
5	0x3e8042f3	0.25051078
6	0x3fb69a65	1.4265867
7	0xbe8ce847	-0.27520964
8	0x3ecd8bf1	0.4014583
9	0x3fd0af4b	1.6303495
10	0x3f6ec03d	0.9326208
11	0xbdf5895b	-0.11989089
12	0x3e06bffb	0.13159172
13	0xbc182974	-0.009287227
14	0x3f4e10c9	0.8049436
15	0xbf7786c6	-0.9669002
16	0xbf19d2ba	-0.6008717
17	0xbf6c4823	-0.9229757
18	0xbf54cb5e	-0.83122814
19	0x3e263ee3	0.16234927
20	0x3ec41733	0.3829895
21	0x3ef36934	0.475412
22	0x3e84c446	0.25930995
23	0xbf3c523c	-0.7356298
24	0xbf788eaf	-0.9709272
25	0x3df6f1df	0.12057852
26	0x3e1d6c1f	0.15373276
27	0xbe1d793f	-0.15378283
28	0xbdaa1eb9	-0.08306641
29	0x3f7114c5	0.94172317
30	0x3f0f8640	0.56064224
31	0x3e2d6a8a	0.16935173
32	0xbf8090cf	-1.0044192
33	0xbf4e40d2	-0.8056766
34	0x3f1c3e65	0.61032706
35	0xbf7e46d8	-0.9932685
36	0xbf6f54fa	-0.9348904
37	0xbec6a681	-0.38798907
38	0xbd258b1d	-0.040415872
39	0xbf815aaf	-1.01058
40	0xbf4c65ef	-0.7984304
41	0xbf9e7677	-1.2379903
42	0xbf0e8d3c	-0.55684257
43	0x3f13a323	0.576708
44	0xbf940f26	-1.1567123
45	0xbf96e23c	-1.1787791
46	0x3f3c30ed	0.73512155
47	0xbf056faa	-0.5212351
48	0xbe485b8e	-0.19566175
49	0x3e52fd43	0.20604424
50	0xbfd153ae	-1.6353662
51	0x3ee75cf9	0.4518812
52	0xbd917b42	-0.07103588
53	0xbf19dbd6	-0.6010107
54	0xbf444ddc	-0.76681304
55	0xbd8d3d0c	-0.068964094
56	0x3f3de9e5	0.7418502
57	0x3f080bbf	0.53142923
58	0xbf2064f3	-0.62654036
59	0x3df39071	0.118927844
60	0xbe802f98	-0.2503631
61	0x3ebc7451	0.36807492
62	0xbf7b9f2a	-0.9828974
63	0x3f0d2028	0.5512719
64	0xbdb6a2a4	-0.0891774
65	0xbf421fbc	-0.7582967
66	0x3e436aa4	0.19083649
67	0xbd2b79c5	-0.041864175
68	0xbec51bbe	-0.38497728
69	0x3f28a46b	0.6587588
70	0x3ec3c6b4	0.38237536
71	0xbf03862c	-0.51376605
72	0x3e7390a9	0.23785652
73	0xbed76bf8	-0.4207456
74	0xbf64a235	-0.8931001
75	0x3ff1f494	1.8902764
76	0x3de67e95	0.11254612
77	0x3ea273e3	0.3172904
78	0xbf291d0b	-0.6605994
79	0xbe2ede80	-0.17077065
80	0x3e85619c	0.26051033
81	0x3e871cc0	0.26389122
82	0xbf276d61	-0.65401274
83	0x3f81ee67	1.015088
84	0x3f72c3aa	0.9482981
85	0x3f2ef4f5	0.68342525
86	0x3f471600	0.77767944
87	0x3f317734	0.69322515
88	0xbf21bfae	-0.63183105
89	0xbecddc37	-0.40207073
90	0x3f01f664	0.5076659
91	0x3e810597	0.25199577
92	0x3f9ffcf9	1.2499076
93	0xbea0ab0f	-0.31380507
94	0xbdc5ad8e	-0.096522436
95	0xbe7d48da	-0.24734822
96	0x3f246650	0.64218616
97	0xbf0a057d	-0.53914624
98	0xbea2c91d	-0.31794062
99	0x3ecc2d7a	0.39878446
100	0xbeb5698c	-0.35432088
101	0xbf9a9fac	-1.2079978
102	0x3f564803	0.8370363
103	0x3c97377a	0.01845907
104	0xbc8a8fb8	-0.016914234
105	0x3e1c1850	0.1524365
106	0xbe3efa06	-0.18650064
107	0x3d748181	0.059693817
108	0x3f2934e7	0.6609635
109	0x3f94e795	1.1633173
110	0x3eecd076	0.46252793
111	0x3e862d3d	0.2620639
112	0xbdd3adbf	-0.10335874
113	0x3e151c18	0.14561498
114	0x3f6b172f	0.9183225
115	0x3f204aa6	0.62613904
116	0x3edbe4be	0.42947954
117	0x3db4c915	0.08827416
118	0xbe937840	-0.2880268
119	0x3f2d55e8	0.6770921
120	0x3ef699d8	0.48164248
121	0x3e8b7570	0.27238035
122	0x3fac5969	1.3464786
123	0x3c9ef6bc	0.019404761
124	0xbf19ac88	-0.60028887
125	0xbca2dded	-0.019881213
126	0x3da1ff0a	0.07909973
127	0xbd41cbd6	-0.047313534

arith.constant21 f4 [128]
0	0x3f993baf	1.1971339
1	0x3f86b8a1	1.0525094
2	0x3ea36a6b	0.31917128
3	0x3fd13b56	1.6346233
4	0x3f165662	0.5872556
5	0x3fb74ea3	1.4320873
6	0x3f7aeac7	0.9801449
7	0xbc3b8b17	-0.011446736
8	0x3e8ec94c	0.27887952
9	0x3f9e2899	1.235614
10	0x3f6c9f37	0.9243044
11	0x3fadfe1b	1.3593172
12	0x3f82b0ae	1.0210168
13	0x3e2a1bfb	0.16612236
14	0x3f869b07	1.051606
15	0x3fa06375	1.2530352
16	0x3f9a6fa8	1.2065325
17	0x3fa101a0	1.2578621
18	0x3f85af8d	1.0444199
19	0x3faaf93b	1.3357309
20	0x3f6fc72d	0.93663293
21	0x3f8b30c2	1.0874255
22	0x3f40c1d0	0.75295734
23	0x3ee9a4a4	0.45633423
24	0x3f07e020	0.5307636
25	0x3f9250d6	1.1430919
26	0x3fa523ba	1.2901528
27	0x3ed0b0eb	0.40759978
28	0x3fad730e	1.3550737
29	0x3f06fba1	0.52727705
30	0x3f626900	0.8844147
31	0x3f8d354f	1.1031893
32	0xbe33eb36	-0.17570195
33	0x3b73081d	0.0037083693
34	0x3f464b27	0.77458423
35	0x3f802938	1.0012579
36	0x3fa69640	1.3014603
37	0x3f15596d	0.5833958
38	0x3fd404a0	1.6563911
39	0x3f858864	1.0432248
40	0x3f0ff90b	0.56239384
41	0x3efaa1a7	0.48951456
42	0x3e78a4bd	0.24281593
43	0x3f021921	0.50819594
44	0x3f4b9b13	0.795335
45	0x3ec8f1ba	0.39246923
46	0x3f0d2770	0.551383
47	0x3f8b5f9d	1.0888554
48	0x3f3e7726	0.74400556
49	0x3fd345fb	1.6505731
50	0x3ea357bf	0.31902882
51	0x3f3f472e	0.74717987
52	0xbd2b0f02	-0.04176236
53	0x3fcb371b	1.5876192
54	0x3fb32df9	1.3998405
55	0x3f6013b4	0.87530065
56	0x3f3dd50f	0.74153227
57	0x3f25b3a2	0.6472722
58	0x3f8dbae2	1.1072657
59	0x3f59d003	0.85083026
60	0x3fe568bd	1.7922589
61	0x3f3dd3a8	0.74151087
62	0x3e7f3eeb	0.24926345
63	0x3f2df2b5	0.67948467
64	0x3f3daf31	0.74095446
65	0x3ef024df	0.4690313
66	0x3fbb678c	1.4640975
67	0x3f9602bc	1.1719584
68	0x3ff1f587	1.8903054
69	0x3fc8c99f	1.568653
70	0x3fb976a9	1.4489337
71	0x3feb22e5	1.8370024
72	0x3f13607e	0.5756911
73	0x3f711131	0.94166857
74	0x3f85a6b1	1.0441495
75	0x400853b0	2.1301079
76	0x3fab1ce6	1.3368194
77	0x3f78d826	0.97204816
78	0x3f40b181	0.7527085
79	0x3f7fad0e	0.99873435
80	0x3f8fb8f5	1.122832
81	0x3fa2fb60	1.2732964
82	0x3f8a8bed	1.0823952
83	0x3e776746	0.2416049
84	0x3f4adffe	0.79248035
85	0x3f906413	1.128054
86	0x3fbd9448	1.4810877
87	0x3f12407e	0.5712966
88	0x3f5975e8	0.84945536
89	0x3f1a14d9	0.6018806
90	0x3f829ea1	1.020466
91	0xbea726f8	-0.32646918
92	0x3f723fa6	0.9462837
93	0x3fc3c7c2	1.5295336
94	0x3f1a8209	0.6035467
95	0x3f96440e	1.1739519
96	0x3e782b83	0.24235348
97	0x3d69cc0f	0.05707937
98	0x3fbb2501	1.4620668
99	0x40297f90	2.6484108
100	0x3f8bf951	1.093546
101	0x3f8d5b57	1.10435
102	0x3f94c377	1.1622151
103	0x3f87a510	1.0597248
104	0x3efd8595	0.49515978
105	0x3f322515	0.6958783
106	0x3f9f2d46	1.2435691
107	0x3fb26908	1.3938303
108	0x3e12f39e	0.14350745
109	0x3f55716d	0.833762
110	0x3f7855a0	0.97005653
111	0x3f52d64c	0.8235824
112	0x3f9786e8	1.1838045
113	0x3f028ec2	0.5099908
114	0x3f88c76f	1.0685862
115	0x3e8428c2	0.25812346
116	0x3f5dd162	0.8664762
117	0x3f537eeb	0.82615536
118	0x3f636331	0.8882323
119	0x3f8200f2	1.0156538
120	0x3efa06c1	0.48833278
121	0x3fac2ca9	1.3451129
122	0x3fb4fe88	1.4140177
123	0x3e4e9dcc	0.20177382
124	0x3fc5ce0a	1.5453503
125	0x3f236ec7	0.6384091
126	0x3f9d8948	1.230752
127	0x3fa43d5e	1.2831228

arith.constant22 f4 [128]
0	0xbf42393a	-0.7586857
1	0xbf23e5bb	-0.64022416
2	0xbe8a68a0	-0.27032948
3	0xbd89d5c7	-0.06730228
4	0x3e62cc11	0.22148158
5	0x3e7b452a	0.24538103
6	0xbea10a62	-0.31453234
7	0x3f08dc38	0.5346103
8	0x3e6b060b	0.22951524
9	0xbe1d793d	-0.1537828
10	0x3ec49b06	0.38399523
11	0xbda53cf9	-0.0806827
12	0xbf5c93bd	-0.8616293
13	0x3f345510	0.70442295
14	0x3f103a1f	0.56338686
15	0xbd06f2c0	-0.03294635
16	0xbdda5c5d	-0.10662148
17	0x3ebbcb44	0.36678517
18	0xbf24c1f4	-0.6435845
19	0xbebd10e6	-0.36926955
20	0xbf3d82d7	-0.7402777
21	0xbf00f632	-0.50375664
22	0x3e1905af	0.14943574
23	0xbe05d21b	-0.1306843
24	0x3ed4f86c	0.4159578
25	0xbd5b2c65	-0.053509135
26	0xbf8ce5fe	-1.1007688
27	0xbe43a681	-0.19106485
28	0xbf25564d	-0.6458481
29	0x3e82c4ac	0.25540674
30	0x3f249bf4	0.64300466
31	0xbee3bc48	-0.44479585
32	0x3ed29075	0.41125837
33	0xbebabd00	-0.3647232
34	0xbebb5412	-0.36587578
35	0x3f239949	0.6390577
36	0x3e3f97b5	0.18710215
37	0x3f8097c7	1.0046319
38	0xbe879608	-0.26481652
39	0x3e9bd7be	0.30438036
40	0x3f494dce	0.78634346
41	0xbe9e21ba	-0.30885106
42	0x3e84c013	0.2592779
43	0x3f3a00ae	0.7265729
44	0x3f73b6df	0.95200914
45	0x3f409821	0.7523213
46	0x3ebb781e	0.3661508
47	0xbf41efd8	-0.757566
48	0xbebccc5e	-0.3687467
49	0xbe2e59bf	-0.17026423
50	0xbe61610d	-0.22009678
51	0xbda26772	-0.07929887
52	0x3caacaac	0.020848595
53	0xbdd11118	-0.102083385
54	0x3bbf67ec	0.005841246
55	0xbda022d4	-0.07819143
56	0xbef02596	-0.46903676
57	0xbe9b4f3a	-0.30333883
58	0xbe6910d4	-0.22760326
59	0xbd75a418	-0.059970945
60	0xbf26a719	-0.6509872
61	0xbebf0a75	-0.37312666
62	0xbe96e3da	-0.29470712
63	0x3f065068	0.5246644
64	0xbf7c09fc	-0.98452735
65	0x3e909c57	0.28244278
66	0xbe8c508f	-0.2740521
67	0xbe63132d	-0.22175284
68	0xbf8c368a	-1.0954144
69	0x3e0ee785	0.13955505
70	0xbef59387	-0.47964117
71	0xbe4f3245	-0.2023402
72	0x3d936109	0.07196242
73	0xbedcca77	-0.43123218
74	0xbeff5baa	-0.49874622
75	0xbe3a30ec	-0.18182725
76	0xbeafbbdd	-0.34323016
77	0xbf06786f	-0.5252752
78	0x3e4dc702	0.20095447
79	0xbb95c3a2	-0.0045704404
80	0xbdc6eadf	-0.09712767
81	0x3e805d3e	0.25071138
82	0xbdb1253a	-0.086496785
83	0x3eda297a	0.4260977
84	0x3e9b5d85	0.30344787
85	0xbeb3dc7e	-0.3512916
86	0x3dcfd81d	0.10148642
87	0x3e2eb531	0.17061307
88	0xbc8a7de5	-0.016905734
89	0xbe0aa232	-0.13538435
90	0xbf9aba0a	-1.2088025
91	0x3f6cfec7	0.9257626
92	0x3f2f24f9	0.6841579
93	0xbe8f933b	-0.28042015
94	0xbea4bdd1	-0.32176068
95	0xbee802fd	-0.4531478
96	0x3f10b67e	0.5652846
97	0x3e52be4d	0.20580406
98	0x3e011bb7	0.12608229
99	0xbf117b4f	-0.5682878
100	0xbe0643b6	-0.13111767
101	0x3f011e75	0.504371
102	0xbf0b7f83	-0.5449144
103	0xbdb51d54	-0.088434845
104	0x3eea31eb	0.4574121
105	0xbea4e894	-0.32208693
106	0xbf59e9ba	-0.85122263
107	0xbe4998ce	-0.19687197
108	0x3dc3a65b	0.09553214
109	0x3f3c7366	0.73613584
110	0x3e2b87ef	0.16751073
111	0xbf2b4742	-0.66905606
112	0xbef262a3	-0.4734088
113	0x3f06ad6d	0.52608377
114	0xbeae7040	-0.34070015
115	0x3f2100d7	0.62891906
116	0xbe9430b2	-0.28943402
117	0xbf2ce2ee	-0.6753377
118	0x3fa8e600	1.319519
119	0x3e86ef9d	0.26354685
120	0xbf4e212c	-0.80519366
121	0xbe9d2dd5	-0.3069903
122	0x3f7124f0	0.9419699
123	0xbea70dcf	-0.32627723
124	0xbedce0eb	-0.4314035
125	0xbe734b19	-0.23759116
126	0xbf3a458e	-0.7276238
127	0xbf5bf057	-0.85913604

tfl.pseudo_qconst2 i1 [128, 32]
0	0x24	36
1	0xef	-17
2	0x3e	62
3	0x28	40
4	0x26	38
5	0xec	-20
6	0x62	98
7	0x81	-127
8	0xfe	-2
9	0x37	55
10	0x4e	78
11	0xbf	-65
12	0x0d	13
13	0xcf	-49
14	0xda	-38
15	0xe8	-24
16	0xca	-54
17	0x01	1
18	0x31	49
19	0xe6	-26
20	0x25	37
21	0x24	36
22	0x05	5
23	0xfe	-2
24	0xe5	-27
25	0xde	-34
26	0x0e	14
27	0x38	56
28	0x01	1
29	0xe9	-23
30	0xe5	-27
31	0xff	-1
32	0xee	-18
33	0x05	5
34	0xd9	-39
35	0xe9	-23
36	0x13	19
37	0xb1	-79
38	0xfb	-5
39	0x26	38
40	0x2a	42
41	0xf4	-12
42	0xfe	-2
43	0x38	56
44	0xf2	-14
45	0x21	33
46	0x7f	127
47	0xd9	-39
48	0x0a	10
49	0xf8	-8
50	0x41	65
51	0x0c	12
52	0xe2	-30
53	0xf7	-9
54	0x09	9
55	0xf3	-13
56	0x08	8
57	0x0a	10
58	0x11	17
59	0xcb	-53
60	0xf8	-8
61	0xe3	-29
62	0x35	53
63	0x0f	15
64	0x13	19
65	0xe0	-32
66	0x0d	13
67	0x0b	11
68	0x1d	29
69	0x07	7
70	0x62	98
71	0xf3	-13
72	0xfc	-4
73	0x0a	10
74	0x2c	44
75	0xdc	-36
76	0x15	21
77	0xe9	-23
78	0xfc	-4
79	0xea	-22
80	0xd4	-44
81	0xfc	-4
82	0x47	71
83	0x1b	27
84	0xfb	-5
85	0x10	16
86	0xf3	-13
87	0x1c	28
88	0x1e	30
89	0xf0	-16
90	0xf5	-11
91	0xee	-18
92	0xfe	-2
93	0x81	-127
94	0x4b	75
95	0xfc	-4
96	0x0e	14
97	0xe9	-23
98	0x45	69
99	0x04	4
100	0xcd	-51
101	0xda	-38
102	0x44	68
103	0xb5	-75
104	0x4b	75
105	0xdd	-35
106	0xf1	-15
107	0xf4	-12
108	0xe0	-32
109	0x77	119
110	0x60	96
111	0x20	32
112	0xe0	-32
113	0xfc	-4
114	0x0e	14
115	0xcc	-52
116	0xe6	-26
117	0x23	35
118	0xe2	-30
119	0xfa	-6
120	0x9e	-98
121	0xfd	-3
122	0x7f	127
123	0x2c	44
124	0xfc	-4
125	0x05	5
126	0xe0	-32
127	0x19	25
128	0x9f	-97
129	0x0e	14
130	0xdd	-35
131	0x81	-127
132	0xfd	-3
133	0x1f	31
134	0xdc	-36
135	0x17	23
136	0xe9	-23
137	0x3c	60
138	0x01	1
139	0xcb	-53
140	0x12	18
141	0xba	-70
142	0xe7	-25
143	0xd5	-43
144	0x13	19
145	0x04	4
146	0xe2	-30
147	0xd0	-48
148	0x0a	10
149	0xe9	-23
150	0x3a	58
151	0x0b	11
152	0x29	41
153	0x0f	15
154	0xaa	-86
155	0xfd	-3
156	0x04	4
157	0xf6	-10
158	0xd5	-43
159	0xf5	-11
160	0x2a	42
161	0x81	-127
162	0x07	7
163	0x1c	28
164	0x03	3
165	0xc2	-62
166	0x07	7
167	0x02	2
168	0x21	33
169	0xf8	-8
170	0x38	56
171	0xe6	-26
172	0xff	-1
173	0x0d	13
174	0x13	19
175	0xfb	-5
176	0x87	-121
177	0xf9	-7
178	0x0d	13
179	0x10	16
180	0xd2	-46
181	0x0c	12
182	0xe3	-29
183	0xf9	-7
184	0x22	34
185	0x06	6
186	0xef	-17
187	0x11	17
188	0xfa	-6
189	0xf6	-10
190	0x0d	13
191	0x00	0
192	0x20	32
193	0x81	-127
194	0xf8	-8
195	0x20	32
196	0x0a	10
197	0xfa	-6
198	0x07	7
199	0x05	5
200	0x09	9
201	0xda	-38
202	0x50	80
203	0x0e	14
204	0xe7	-25
205	0x20	32
206	0xfa	-6
207	0xf4	-12
208	0x82	-126
209	0xf3	-13
210	0x16	22
211	0x0a	10
212	0xa4	-92
213	0x1d	29
214	0xf6	-10
215	0xfc	-4
216	0x16	22
217	0xd7	-41
218	0x03	3
219	0xe0	-32
220	0xf1	-15
221	0xe9	-23
222	0x0a	10
223	0x07	7
224	0xfd	-3
225	0x16	22
226	0xc5	-59
227	0x10	16
228	0xeb	-21
229	0x13	19
230	0xd1	-47
231	0xeb	-21
232	0x1f	31
233	0x01	1
234	0x04	4
235	0x3d	61
236	0xe6	-26
237	0xea	-22
238	0xd3	-45
239	0xea	-22
240	0x23	35
241	0x01	1
242	0xfe	-2
243	0xf1	-15
244	0x05	5
245	0xe3	-29
246	0x0d	13
247	0xed	-19
248	0x2e	46
249	0x81	-127
250	0x2f	47
251	0xc4	-60
252	0x04	4
253	0xf9	-7
254	0xe3	-29
255	0x15	21

tfl.pseudo_qconst3 i1 [128, 32]
0	0xe5	-27
1	0x21	33
2	0x09	9
3	0xc6	-58
4	0xe6	-26
5	0x03	3
6	0xf1	-15
7	0x3a	58
8	0x03	3
9	0x1e	30
10	0xf1	-15
11	0xa4	-92
12	0x35	53
13	0xb7	-73
14	0x81	-127
15	0xb4	-76
16	0x33	51
17	0xf8	-8
18	0x19	25
19	0x12	18
20	0x2b	43
21	0x9d	-99
22	0xfb	-5
23	0xc6	-58
24	0x30	48
25	0x0a	10
26	0xc8	-56
27	0x23	35
28	0xc9	-55
29	0x2b	43
30	0x13	19
31	0x32	50
32	0xf8	-8
33	0x03	3
34	0x09	9
35	0xf9	-7
36	0xfc	-4
37	0x14	20
38	0xfa	-6
39	0x21	33
40	0xec	-20
41	0x13	19
42	0xfa	-6
43	0x08	8
44	0x2f	47
45	0xfb	-5
46	0xd3	-45
47	0x41	65
48	0x03	3
49	0x05	5
50	0x26	38
51	0xf4	-12
52	0xf1	-15
53	0xfd	-3
54	0xf5	-11
55	0xee	-18
56	0x81	-127
57	0x41	65
58	0x1b	27
59	0xed	-19
60	0x06	6
61	0x0d	13
62	0x26	38
63	0xff	-1
64	0x0b	11
65	0xbf	-65
66	0x31	49
67	0x03	3
68	0xf8	-8
69	0xea	-22
70	0xf8	-8
71	0xf3	-13
72	0x07	7
73	0xde	-34
74	0x27	39
75	0xe6	-26
76	0xf8	-8
77	0x05	5
78	0x0e	14
79	0x12	18
80	0x81	-127
81	0xec	-20
82	0xf9	-7
83	0x41	65
84	0xcb	-53
85	0xf6	-10
86	0xec	-20
87	0x01	1
88	0x27	39
89	0x0f	15
90	0xe7	-25
91	0xe2	-30
92	0xfb	-5
93	0x03	3
94	0x1a	26
95	0x0e	14
96	0x03	3
97	0x7f	127
98	0x00	0
99	0x04	4
100	0x00	0
101	0x06	6
102	0x07	7
103	0xf9	-7
104	0x00	0
105	0xfe	-2
106	0xd6	-42
107	0xff	-1
108	0xfe	-2
109	0x02	2
110	0x02	2
111	0x06	6
112	0x14	20
113	0xf7	-9
114	0xfe	-2
115	0x00	0
116	0x02	2
117	0xf0	-16
118	0xfc	-4
119	0x02	2
120	0x01	1
121	0x00	0
122	0x04	4
123	0x03	3
124	0xd4	-44
125	0x01	1
126	0xfe	-2
127	0x07	7
128	0x19	25
129	0x09	9
130	0xcd	-51
131	0x1d	29
132	0x1a	26
133	0x2c	44
134	0xbf	-65
135	0xee	-18
136	0xca	-54
137	0x32	50
138	0x06	6
139	0x62	98
140	0xda	-38
141	0xb2	-78
142	0x0c	12
143	0x04	4
144	0x18	24
145	0xfd	-3
146	0xa9	-87
147	0x5c	92
148	0xf9	-7
149	0xe8	-24
150	0x34	52
151	0x71	113
152	0x04	4
153	0x03	3
154	0xcb	-53
155	0xf6	-10
156	0x09	9
157	0xaa	-86
158	0x7f	127
159	0xf3	-13
160	0x08	8
161	0x01	1
162	0xed	-19
163	0x5a	90
164	0x05	5
165	0xe2	-30
166	0xf3	-13
167	0x2b	43
168	0xf8	-8
169	0x15	21
170	0xf9	-7
171	0xd3	-45
172	0xfd	-3
173	0x02	2
174	0x8d	-115
175	0x18	24
176	0xfe	-2
177	0x27	39
178	0xee	-18
179	0xbb	-69
180	0xc1	-63
181	0xf9	-7
182	0x02	2
183	0xf4	-12
184	0xb6	-74
185	0x3f	63
186	0xd1	-47
187	0x1c	28
188	0x1f	31
189	0x0f	15
190	0x81	-127
191	0xfc	-4
192	0xd2	-46
193	0x1c	28
194	0xf9	-7
195	0xeb	-21
196	0x08	8
197	0x22	34
198	0x01	1
199	0x0e	14
200	0x23	35
201	0x67	103
202	0xfc	-4
203	0xd4	-44
204	0x07	7
205	0xdf	-33
206	0xf6	-10
207	0xd8	-40
208	0xd6	-42
209	0xd4	-44
210	0x1c	28
211	0xd0	-48
212	0xbd	-67
213	0xbf	-65
214	0x00	0
215	0x4b	75
216	0x52	82
217	0xd7	-41
218	0x7f	127
219	0x2f	47
220	0xfb	-5
221	0x8a	-118
222	0xdc	-36
223	0x53	83
224	0xf6	-10
225	0xfe	-2
226	0xe7	-25
227	0xef	-17
228	0x20	32
229	0x35	53
230	0x02	2
231	0x3a	58
232	0xd8	-40
233	0x27	39
234	0x06	6
235	0x2d	45
236	0x0c	12
237	0xf1	-15
238	0x26	38
239	0xa0	-96
240	0xfe	-2
241	0x07	7
242	0x3d	61
243	0xee	-18
244	0xfc	-4
245	0x01	1
246	0x65	101
247	0x50	80
248	0xdb	-37
249	0xb5	-75
250	0x20	32
251	0xa0	-96
252	0x07	7
253	0x81	-127
254	0xf7	-9
255	0xf1	-15

tfl.pseudo_qconst4 i1 [128, 32]
0	0xd3	-45
1	0x04	4
2	0x0a	10
3	0xe9	-23
4	0x0e	14
5	0x6b	107
6	0x1e	30
7	0xf8	-8
8	0x81	-127
9	0xab	-85
10	0xf2	-14
11	0xfd	-3
12	0xe3	-29
13	0xe3	-29
14	0x4b	75
15	0x42	66
16	0x3e	62
17	0xff	-1
18	0xe2	-30
19	0x55	85
20	0x3a	58
21	0xfc	-4
22	0x02	2
23	0x40	64
24	0x40	64
25	0xe4	-28
26	0xac	-84
27	0x22	34
28	0x2d	45
29	0x20	32
30	0xfc	-4
31	0xfa	-6
32	0x09	9
33	0xfa	-6
34	0xd1	-47
35	0xee	-18
36	0x1e	30
37	0x19	25
38	0x06	6
39	0x06	6
40	0xcf	-49
41	0xff	-1
42	0x0c	12
43	0x14	20
44	0x00	0
45	0x03	3
46	0xde	-34
47	0xeb	-21
48	0xfa	-6
49	0x13	19
50	0x0f	15
51	0xea	-22
52	0x26	38
53	0x06	6
54	0x0d	13
55	0x5b	91
56	0xcb	-53
57	0xee	-18
58	0x7f	127
59	0x9e	-98
60	0x01	1
61	0xd1	-47
62	0xeb	-21
63	0xf6	-10
64	0x05	5
65	0x1e	30
66	0x08	8
67	0x08	8
68	0x0b	11
69	0x14	20
70	0x02	2
71	0x07	7
72	0xf4	-12
73	0x15	21
74	0x81	-127
75	0xff	-1
76	0x0f	15
77	0xe3	-29
78	0xf2	-14
79	0xf4	-12
80	0x27	39
81	0xfe	-2
82	0x08	8
83	0xfc	-4
84	0x05	5
85	0x0b	11
86	0xfe	-2
87	0x1d	29
88	0xfe	-2
89	0x00	0
90	0x09	9
91	0x08	8
92	0xfd	-3
93	0xf2	-14
94	0x00	0
95	0xff	-1
96	0xfc	-4
97	0xdb	-37
98	0xde	-34
99	0xf8	-8
100	0x0e	14
101	0x1c	28
102	0x59	89
103	0xa3	-93
104	0xfe	-2
105	0x81	-127
106	0x30	48
107	0xfa	-6
108	0xa6	-90
109	0xd3	-45
110	0x09	9
111	0x1d	29
112	0xc7	-57
113	0x05	5
114	0x2f	47
115	0xf7	-9
116	0x72	114
117	0x33	51
118	0x28	40
119	0xfc	-4
120	0x20	32
121	0xc7	-57
122	0xc5	-59
123	0x31	49
124	0x02	2
125	0xc0	-64
126	0xfd	-3
127	0x16	22
128	0xfc	-4
129	0x0a	10
130	0xdf	-33
131	0xfc	-4
132	0xfa	-6
133	0x22	34
134	0xda	-38
135	0x08	8
136	0x81	-127
137	0x0d	13
138	0xf1	-15
139	0x0a	10
140	0xec	-20
141	0xf5	-11
142	0xfc	-4
143	0xf2	-14
144	0x15	21
145	0xf8	-8
146	0x14	20
147	0xfe	-2
148	0x00	0
149	0xfa	-6
150	0x04	4
151	0xd7	-41
152	0x02	2
153	0x42	66
154	0xe0	-32
155	0x0a	10
156	0xfb	-5
157	0xe3	-29
158	0x06	6
159	0x0f	15
160	0x0c	12
161	0xc7	-57
162	0x19	25
163	0x0d	13
164	0x0a	10
165	0x08	8
166	0xe7	-25
167	0xd0	-48
168	0xfb	-5
169	0x04	4
170	0x40	64
171	0xf5	-11
172	0x63	99
173	0x1a	26
174	0xfb	-5
175	0x1e	30
176	0x81	-127
177	0x15	21
178	0xfc	-4
179	0x01	1
180	0x28	40
181	0x2e	46
182	0xe1	-31
183	0xf8	-8
184	0xf1	-15
185	0x10	16
186	0xfb	-5
187	0x21	33
188	0x27	39
189	0xfb	-5
190	0x0a	10
191	0xe2	-30
192	0xee	-18
193	0x81	-127
194	0x35	53
195	0x09	9
196	0x16	22
197	0xca	-54
198	0x00	0
199	0x15	21
200	0x4b	75
201	0x22	34
202	0x5b	91
203	0xf0	-16
204	0x27	39
205	0xde	-34
206	0x3b	59
207	0xc1	-63
208	0xa4	-92
209	0x51	81
210	0x26	38
211	0xba	-70
212	0xe2	-30
213	0x5f	95
214	0x07	7
215	0xfa	-6
216	0x1a	26
217	0xf3	-13
218	0x39	57
219	0x12	18
220	0x5d	93
221	0x0d	13
222	0xff	-1
223	0xa5	-91
224	0xf0	-16
225	0x02	2
226	0xe5	-27
227	0xec	-20
228	0x09	9
229	0x7f	127
230	0xff	-1
231	0x1d	29
232	0xe9	-23
233	0x40	64
234	0x09	9
235	0xf1	-15
236	0x32	50
237	0xe1	-31
238	0x17	23
239	0xc2	-62
240	0x00	0
241	0xed	-19
242	0x22	34
243	0xfb	-5
244	0x0e	14
245	0xff	-1
246	0x5b	91
247	0x3e	62
248	0x41	65
249	0x94	-108
250	0x0a	10
251	0xd3	-45
252	0xed	-19
253	0xac	-84
254	0x00	0
255	0x21	33

tfl.pseudo_qconst5 i1 [128, 32]
0	0x31	49
1	0xda	-38
2	0x19	25
3	0x43	67
4	0xcc	-52
5	0xdf	-33
6	0x1d	29
7	0xce	-50
8	0xef	-17
9	0x81	-127
10	0x16	22
11	0xe6	-26
12	0xda	-38
13	0xcf	-49
14	0xf7	-9
15	0x59	89
16	0xe6	-26
17	0xe5	-27
18	0xff	-1
19	0x5c	92
20	0xfe	-2
21	0x20	32
22	0xf4	-12
23	0x83	-125
24	0x11	17
25	0x1f	31
26	0xd5	-43
27	0x1c	28
28	0xeb	-21
29	0x47	71
30	0xb8	-72
31	0x19	25
32	0xf7	-9
33	0x35	53
34	0x20	32
35	0xfe	-2
36	0xf4	-12
37	0x32	50
38	0x81	-127
39	0xf7	-9
40	0xac	-84
41	0x11	17
42	0xd8	-40
43	0xe2	-30
44	0xce	-50
45	0xeb	-21
46	0xed	-19
47	0xee	-18
48	0x72	114
49	0xfd	-3
50	0xc8	-56
51	0x24	36
52	0x28	40
53	0xe1	-31
54	0x06	6
55	0x4a	74
56	0x10	16
57	0x06	6
58	0xe0	-32
59	0xec	-20
60	0xf9	-7
61	0xf3	-13
62	0x02	2
63	0x12	18
64	0x0e	14
65	0x2e	46
66	0x4f	79
67	0x0d	13
68	0xd9	-39
69	0x07	7
70	0x41	65
71	0xfb	-5
72	0xe5	-27
73	0x38	56
74	0x81	-127
75	0xc0	-64
76	0xd0	-48
77	0xd5	-43
78	0x35	53
79	0xec	-20
80	0x00	0
81	0x00	0
82	0xb1	-79
83	0xdb	-37
84	0x05	5
85	0xbf	-65
86	0x11	17
87	0x51	81
88	0xf2	-14
89	0x3c	60
90	0xef	-17
91	0x3f	63
92	0x02	2
93	0x1d	29
94	0xdf	-33
95	0xfb	-5
96	0xf6	-10
97	0x20	32
98	0x30	48
99	0xe7	-25
100	0x81	-127
101	0xfc	-4
102	0xec	-20
103	0xeb	-21
104	0x08	8
105	0x6d	109
106	0xdf	-33
107	0xcd	-51
108	0xf9	-7
109	0x19	25
110	0xd7	-41
111	0xf8	-8
112	0x1d	29
113	0x2b	43
114	0xe6	-26
115	0xf5	-11
116	0xff	-1
117	0xce	-50
118	0x03	3
119	0xcb	-53
120	0xcf	-49
121	0x07	7
122	0xd1	-47
123	0x28	40
124	0x22	34
125	0x49	73
126	0xcc	-52
127	0x15	21
128	0x22	34
129	0x2c	44
130	0x26	38
131	0x1a	26
132	0xd0	-48
133	0x06	6
134	0xf2	-14
135	0xbd	-67
136	0x3b	59
137	0x28	40
138	0xd9	-39
139	0x63	99
140	0xe6	-26
141	0x0d	13
142	0x55	85
143	0x0e	14
144	0x02	2
145	0xf7	-9
146	0x1b	27
147	0x14	20
148	0xe5	-27
149	0xfc	-4
150	0x0f	15
151	0x5e	94
152	0x11	17
153	0xfd	-3
154	0x7f	127
155	0xae	-82
156	0xf7	-9
157	0xfa	-6
158	0x4a	74
159	0x0e	14
160	0xe5	-27
161	0x18	24
162	0x65	101
163	0xf9	-7
164	0xd1	-47
165	0xdc	-36
166	0x81	-127
167	0x13	19
168	0xe6	-26
169	0x33	51
170	0xfa	-6
171	0xbd	-67
172	0xd1	-47
173	0xc4	-60
174	0x2f	47
175	0xd3	-45
176	0x0d	13
177	0xed	-19
178	0xad	-83
179	0xd8	-40
180	0xd7	-41
181	0xb0	-80
182	0xd7	-41
183	0x1e	30
184	0xd4	-44
185	0x1a	26
186	0xe2	-30
187	0x24	36
188	0x00	0
189	0xe1	-31
190	0xd9	-39
191	0x12	18
192	0xf9	-7
193	0x03	3
194	0x05	5
195	0x01	1
196	0xf9	-7
197	0xec	-20
198	0x81	-127
199	0xe0	-32
200	0x15	21
201	0xee	-18
202	0x27	39
203	0x00	0
204	0x38	56
205	0xfb	-5
206	0xef	-17
207	0xf8	-8
208	0xf1	-15
209	0xdf	-33
210	0xf1	-15
211	0x20	32
212	0xea	-22
213	0xa6	-90
214	0xf2	-14
215	0xff	-1
216	0x2b	43
217	0xf8	-8
218	0x16	22
219	0x32	50
220	0xe2	-30
221	0xfd	-3
222	0x20	32
223	0xfe	-2
224	0xfb	-5
225	0x15	21
226	0xee	-18
227	0x10	16
228	0x1e	30
229	0xe8	-24
230	0x05	5
231	0xcb	-53
232	0x38	56
233	0x29	41
234	0xb8	-72
235	0xe9	-23
236	0x37	55
237	0xdd	-35
238	0x7f	127
239	0x25	37
240	0x15	21
241	0x03	3
242	0x05	5
243	0x45	69
244	0x20	32
245	0xf7	-9
246	0xf2	-14
247	0x3d	61
248	0xe9	-23
249	0xee	-18
250	0x2d	45
251	0x2a	42
252	0x0a	10
253	0xce	-50
254	0x60	96
255	0x0c	12

tfl.pseudo_qconst6 i1 [128, 128]
0	0x04	4
1	0x06	6
2	0x08	8
3	0x0d	13
4	0x09	9
5	0xff	-1
6	0xc9	-55
7	0x03	3
8	0x15	21
9	0xf9	-7
10	0x00	0
11	0xeb	-21
12	0xe8	-24
13	0xd3	-45
14	0x08	8
15	0x0b	11
16	0x2a	42
17	0x08	8
18	0xca	-54
19	0xc3	-61
20	0x06	6
21	0xfa	-6
22	0xbb	-69
23	0xd1	-47
24	0xf8	-8
25	0xf4	-12
26	0x12	18
27	0xfa	-6
28	0xff	-1
29	0x81	-127
30	0xc7	-57
31	0x0e	14
32	0xa2	-94
33	0x18	24
34	0x1c	28
35	0x21	33
36	0xfd	-3
37	0x0f	15
38	0x07	7
39	0x04	4
40	0xf4	-12
41	0xf6	-10
42	0x17	23
43	0xb5	-75
44	0x0a	10
45	0xdb	-37
46	0x1b	27
47	0xfd	-3
48	0xe1	-31
49	0x0f	15
50	0xd8	-40
51	0x1c	28
52	0x02	2
53	0xf5	-11
54	0xec	-20
55	0xc2	-62
56	0x01	1
57	0x11	17
58	0xf3	-13
59	0x05	5
60	0xf9	-7
61	0xe8	-24
62	0xee	-18
63	0x02	2
64	0x0c	12
65	0x35	53
66	0x19	25
67	0x3a	58
68	0xf3	-13
69	0x09	9
70	0xd0	-48
71	0xe4	-28
72	0xc7	-57
73	0x02	2
74	0x70	112
75	0xdf	-33
76	0xda	-38
77	0x83	-125
78	0xf0	-16
79	0x12	18
80	0xf6	-10
81	0x0e	14
82	0x0c	12
83	0xfc	-4
84	0xd2	-46
85	0xd3	-45
86	0xb7	-73
87	0x21	33
88	0x0e	14
89	0x1f	31
90	0xd9	-39
91	0x1e	30
92	0x1d	29
93	0xf3	-13
94	0xa6	-90
95	0x0d	13
96	0xe7	-25
97	0x04	4
98	0x08	8
99	0xfc	-4
100	0xd2	-46
101	0xf6	-10
102	0x2e	46
103	0x92	-110
104	0x08	8
105	0xf9	-7
106	0x06	6
107	0x19	25
108	0xf8	-8
109	0xea	-22
110	0x3b	59
111	0xc2	-62
112	0x2e	46
113	0x15	21
114	0x2d	45
115	0xce	-50
116	0x53	83
117	0xdc	-36
118	0xd8	-40
119	0xf5	-11
120	0xf6	-10
121	0xf9	-7
122	0x05	5
123	0x1e	30
124	0x18	24
125	0xfb	-5
126	0xe6	-26
127	0x2a	42
128	0x13	19
129	0xfe	-2
130	0xe8	-24
131	0x46	70
132	0xc1	-63
133	0xcc	-52
134	0x32	50
135	0xf2	-14
136	0xe3	-29
137	0x21	33
138	0x43	67
139	0xdb	-37
140	0xed	-19
141	0xcf	-49
142	0x1b	27
143	0x0d	13
144	0x0a	10
145	0xfd	-3
146	0x22	34
147	0xdc	-36
148	0x46	70
149	0xef	-17
150	0x43	67
151	0xff	-1
152	0x0f	15
153	0xe7	-25
154	0x30	48
155	0x14	20
156	0x07	7
157	0x33	51
158	0x1a	26
159	0xd0	-48
160	0x33	51
161	0xd0	-48
162	0x0d	13
163	0x01	1
164	0x29	41
165	0xfd	-3
166	0x00	0
167	0xdc	-36
168	0x6b	107
169	0xfb	-5
170	0x2d	45
171	0x06	6
172	0x38	56
173	0xe5	-27
174	0x1a	26
175	0xea	-22
176	0xdf	-33
177	0x31	49
178	0x13	19
179	0xff	-1
180	0x53	83
181	0xea	-22
182	0x08	8
183	0xef	-17
184	0xb8	-72
185	0xe3	-29
186	0xbd	-67
187	0x11	17
188	0xc8	-56
189	0xf6	-10
190	0x9e	-98
191	0x0a	10
192	0xea	-22
193	0x19	25
194	0x05	5
195	0xfc	-4
196	0x08	8
197	0xe4	-28
198	0x66	102
199	0xc4	-60
200	0xe8	-24
201	0xc9	-55
202	0x14	20
203	0xd0	-48
204	0xc6	-58
205	0x08	8
206	0x24	36
207	0x5e	94
208	0xf2	-14
209	0x02	2
210	0x40	64
211	0xfa	-6
212	0x51	81
213	0x54	84
214	0x7f	127
215	0x12	18
216	0x0f	15
217	0xfb	-5
218	0x15	21
219	0x3d	61
220	0x28	40
221	0x09	9
222	0x0b	11
223	0xd2	-46
224	0x19	25
225	0xbf	-65
226	0xce	-50
227	0x21	33
228	0x1b	27
229	0xd9	-39
230	0x38	56
231	0xea	-22
232	0x20	32
233	0x1e	30
234	0xf9	-7
235	0xf1	-15
236	0xea	-22
237	0x2c	44
238	0x48	72
239	0x26	38
240	0x2f	47
241	0x29	41
242	0x71	113
243	0xec	-20
244	0xf6	-10
245	0x56	86
246	0x22	34
247	0x41	65
248	0x09	9
249	0xf6	-10
250	0xef	-17
251	0xca	-54
252	0x05	5
253	0xf5	-11
254	0xe6	-26
255	0x1f	31

tfl.pseudo_qconst7 i1 [128, 128]
0	0xe3	-29
1	0xff	-1
2	0x55	85
3	0x18	24
4	0xf6	-10
5	0xfe	-2
6	0xe4	-28
7	0xee	-18
8	0xe9	-23
9	0x01	1
10	0xe1	-31
11	0x10	16
12	0xd3	-45
13	0x2b	43
14	0x2f	47
15	0xcd	-51
16	0xe6	-26
17	0x57	87
18	0x40	64
19	0xb9	-71
20	0xd4	-44
21	0xfc	-4
22	0x21	33
23	0x20	32
24	0x02	2
25	0xfc	-4
26	0x11	17
27	0xf7	-9
28	0x16	22
29	0xb7	-73
30	0xfa	-6
31	0x0e	14
32	0x36	54
33	0xe8	-24
34	0x06	6
35	0xed	-19
36	0x0c	12
37	0x1a	26
38	0xd9	-39
39	0xe3	-29
40	0xcf	-49
41	0x14	20
42	0xed	-19
43	0x11	17
44	0xe0	-32
45	0x2f	47
46	0x9f	-97
47	0xcb	-53
48	0x00	0
49	0xe3	-29
50	0x3b	59
51	0x5a	90
52	0x2d	45
53	0x42	66
54	0x21	33
55	0xc3	-61
56	0xd3	-45
57	0xee	-18
58	0x26	38
59	0x1b	27
60	0x81	-127
61	0xcc	-52
62	0x2e	46
63	0xf6	-10
64	0x0d	13
65	0xff	-1
66	0xf7	-9
67	0xb9	-71
68	0xf9	-7
69	0x4d	77
70	0xf8	-8
71	0x46	70
72	0xa9	-87
73	0x07	7
74	0x16	22
75	0xd2	-46
76	0x0c	12
77	0xb8	-72
78	0x18	24
79	0xd9	-39
80	0xd1	-47
81	0xf1	-15
82	0x25	37
83	0x10	16
84	0xfe	-2
85	0xe5	-27
86	0xfc	-4
87	0x1d	29
88	0x14	20
89	0x10	16
90	0x38	56
91	0xc7	-57
92	0xd4	-44
93	0xff	-1
94	0xdf	-33
95	0x19	25
96	0x95	-107
97	0x08	8
98	0xec	-20
99	0x20	32
100	0x32	50
101	0xdd	-35
102	0xd7	-41
103	0xec	-20
104	0x3f	63
105	0x10	16
106	0xce	-50
107	0xd0	-48
108	0xe7	-25
109	0xbd	-67
110	0x8c	-116
111	0xcf	-49
112	0x25	37
113	0x04	4
114	0xd8	-40
115	0x03	3
116	0x30	48
117	0xc7	-57
118	0xef	-17
119	0x13	19
120	0xfc	-4
121	0x12	18
122	0xd6	-42
123	0x0e	14
124	0x25	37
125	0x09	9
126	0x33	51
127	0x23	35
128	0xdb	-37
129	0xf9	-7
130	0x2c	44
131	0x1a	26
132	0x5e	94
133	0x1f	31
134	0xee	-18
135	0xf1	-15
136	0xec	-20
137	0xfe	-2
138	0xe3	-29
139	0x15	21
140	0x0a	10
141	0xd2	-46
142	0xf5	-11
143	0xe1	-31
144	0x1c	28
145	0x07	7
146	0x05	5
147	0xdb	-37
148	0x10	16
149	0xf4	-12
150	0xcc	-52
151	0xe3	-29
152	0xd2	-46
153	0xf2	-14
154	0xf9	-7
155	0xf8	-8
156	0x07	7
157	0xf8	-8
158	0xf3	-13
159	0x3f	63
160	0xe6	-26
161	0xdc	-36
162	0xf5	-11
163	0x03	3
164	0xcc	-52
165	0x0e	14
166	0xf9	-7
167	0x00	0
168	0x10	16
169	0xf7	-9
170	0x01	1
171	0xff	-1
172	0x00	0
173	0xf9	-7
174	0x02	2
175	0x0b	11
176	0xc0	-64
177	0x0b	11
178	0x0d	13
179	0xf5	-11
180	0x03	3
181	0xfe	-2
182	0x18	24
183	0x24	36
184	0x7f	127
185	0xf9	-7
186	0xd4	-44
187	0x14	20
188	0x07	7
189	0x02	2
190	0xfc	-4
191	0x15	21
192	0x10	16
193	0x0a	10
194	0x00	0
195	0x27	39
196	0xfa	-6
197	0xfc	-4
198	0xfc	-4
199	0xc0	-64
200	0xfd	-3
201	0x3a	58
202	0xe9	-23
203	0x28	40
204	0x7a	122
205	0x03	3
206	0x07	7
207	0xf2	-14
208	0xfc	-4
209	0xff	-1
210	0xf3	-13
211	0xf0	-16
212	0x03	3
213	0xc3	-61
214	0x01	1
215	0xfb	-5
216	0xd3	-45
217	0xac	-84
218	0x07	7
219	0xda	-38
220	0xf2	-14
221	0x03	3
222	0xd0	-48
223	0xe0	-32
224	0x3d	61
225	0x02	2
226	0x03	3
227	0x32	50
228	0xb9	-71
229	0x11	17
230	0x02	2
231	0x24	36
232	0x32	50
233	0xd2	-46
234	0x12	18
235	0x0c	12
236	0x56	86
237	0xeb	-21
238	0xc2	-62
239	0x1e	30
240	0xfb	-5
241	0xec	-20
242	0x12	18
243	0xa9	-87
244	0x1c	28
245	0x0a	10
246	0xf3	-13
247	0x10	16
248	0x16	22
249	0xf8	-8
250	0x02	2
251	0x57	87
252	0x05	5
253	0x00	0
254	0x02	2
255	0xe4	-28

tfl.pseudo_qconst8 i1 [128, 128]
0	0xe2	-30
1	0x09	9
2	0xec	-20
3	0xdd	-35
4	0x2c	44
5	0x18	24
6	0x0b	11
7	0x18	24
8	0x1e	30
9	0x37	55
10	0x23	35
11	0x0c	12
12	0x08	8
13	0xf9	-7
14	0x27	39
15	0x1c	28
16	0xfb	-5
17	0xe9	-23
18	0xf8	-8
19	0xf0	-16
20	0xf0	-16
21	0x2d	45
22	0x24	36
23	0xf9	-7
24	0x28	40
25	0x04	4
26	0x09	9
27	0x08	8
28	0x1b	27
29	0xf3	-13
30	0xed	-19
31	0xf4	-12
32	0xe8	-24
33	0xe6	-26
34	0xe4	-28
35	0xfb	-5
36	0x0a	10
37	0xf8	-8
38	0x2d	45
39	0xf5	-11
40	0x14	20
41	0xf8	-8
42	0xe3	-29
43	0x1d	29
44	0x0a	10
45	0xfa	-6
46	0x34	52
47	0x15	21
48	0xf5	-11
49	0x18	24
50	0xd3	-45
51	0xb5	-75
52	0x04	4
53	0xf0	-16
54	0xd0	-48
55	0x2f	47
56	0x37	55
57	0x25	37
58	0xf0	-16
59	0xe6	-26
60	0x48	72
61	0x2f	47
62	0xef	-17
63	0x2f	47
64	0xf5	-11
65	0xb3	-77
66	0x2c	44
67	0xfa	-6
68	0xd7	-41
69	0xc9	-55
70	0x0a	10
71	0xf8	-8
72	0x11	17
73	0xe6	-26
74	0xa7	-89
75	0x1b	27
76	0x0f	15
77	0x2c	44
78	0xe4	-28
79	0x12	18
80	0xd6	-42
81	0x01	1
82	0xf0	-16
83	0x20	32
84	0x4d	77
85	0x50	80
86	0x22	34
87	0x04	4
88	0x81	-127
89	0xce	-50
90	0x13	19
91	0xeb	-21
92	0x18	24
93	0xff	-1
94	0xcd	-51
95	0xf2	-14
96	0x3e	62
97	0xf5	-11
98	0x03	3
99	0xf8	-8
100	0xc8	-56
101	0xda	-38
102	0xfe	-2
103	0x32	50
104	0x1a	26
105	0xd8	-40
106	0xff	-1
107	0x2b	43
108	0x2a	42
109	0x43	67
110	0x0f	15
111	0x27	39
112	0xda	-38
113	0x1b	27
114	0x0c	12
115	0xf6	-10
116	0xff	-1
117	0xec	-20
118	0xf6	-10
119	0x0f	15
120	0x1a	26
121	0xee	-18
122	0x1b	27
123	0x15	21
124	0x03	3
125	0x25	37
126	0xee	-18
127	0x4a	74
128	0x07	7
129	0x00	0
130	0x3a	58
131	0x02	2
132	0x2d	45
133	0xfd	-3
134	0xe6	-26
135	0xff	-1
136	0xe8	-24
137	0xdc	-36
138	0x06	6
139	0xf7	-9
140	0x10	16
141	0x38	56
142	0x18	24
143	0xd1	-47
144	0xe5	-27
145	0x0a	10
146	0x19	25
147	0x13	19
148	0xff	-1
149	0xf8	-8
150	0xdb	-37
151	0x87	-121
152	0x8e	-114
153	0xa5	-91
154	0x1d	29
155	0x07	7
156	0x11	17
157	0x3f	63
158	0x1e	30
159	0xfc	-4
160	0x0b	11
161	0x22	34
162	0xc5	-59
163	0x04	4
164	0x9d	-99
165	0xe2	-30
166	0xee	-18
167	0xf7	-9
168	0xe4	-28
169	0xfe	-2
170	0xf5	-11
171	0x06	6
172	0x17	23
173	0x05	5
174	0x03	3
175	0x0b	11
176	0xb1	-79
177	0xff	-1
178	0x05	5
179	0x0a	10
180	0xee	-18
181	0x05	5
182	0x05	5
183	0xfb	-5
184	0x02	2
185	0xf3	-13
186	0xe1	-31
187	0x2a	42
188	0xfa	-6
189	0xee	-18
190	0x19	25
191	0x3b	59
192	0xf9	-7
193	0x2d	45
194	0x18	24
195	0x24	36
196	0xe5	-27
197	0x0c	12
198	0x0f	15
199	0xd3	-45
200	0xfe	-2
201	0xd7	-41
202	0x0c	12
203	0x1a	26
204	0x7f	127
205	0x1e	30
206	0x1b	27
207	0xf1	-15
208	0xfe	-2
209	0xf5	-11
210	0x00	0
211	0xe9	-23
212	0x00	0
213	0x02	2
214	0xde	-34
215	0xf5	-11
216	0xfc	-4
217	0x16	22
218	0x12	18
219	0x00	0
220	0x87	-121
221	0xfd	-3
222	0xf6	-10
223	0x0c	12
224	0x0a	10
225	0xfe	-2
226	0xf4	-12
227	0x05	5
228	0xd5	-43
229	0x06	6
230	0x12	18
231	0x1b	27
232	0x0c	12
233	0xdd	-35
234	0x16	22
235	0xff	-1
236	0x1d	29
237	0x22	34
238	0x10	16
239	0x25	37
240	0xfc	-4
241	0xfd	-3
242	0xff	-1
243	0x40	64
244	0x02	2
245	0x1b	27
246	0xf7	-9
247	0xfd	-3
248	0xf5	-11
249	0xfd	-3
250	0xd4	-44
251	0x52	82
252	0xef	-17
253	0x06	6
254	0xf8	-8
255	0x0d	13

tfl.pseudo_qconst9 i1 [128, 128]
0	0xba	-70
1	0xd5	-43
2	0x15	21
3	0x2d	45
4	0x02	2
5	0x1d	29
6	0xe2	-30
7	0xf8	-8
8	0x06	6
9	0x17	23
10	0x03	3
11	0x07	7
12	0x0c	12
13	0x34	52
14	0xd6	-42
15	0xfb	-5
16	0x34	52
17	0x15	21
18	0x3c	60
19	0x05	5
20	0x2b	43
21	0xf7	-9
22	0xf8	-8
23	0x0f	15
24	0xee	-18
25	0xe2	-30
26	0xbd	-67
27	0x04	4
28	0xc8	-56
29	0x07	7
30	0x16	22
31	0x48	72
32	0xb5	-75
33	0xdd	-35
34	0xf1	-15
35	0x36	54
36	0x06	6
37	0xe9	-23
38	0xbb	-69
39	0x1a	26
40	0x08	8
41	0xe4	-28
42	0xb6	-74
43	0x03	3
44	0x48	72
45	0xbb	-69
46	0x1b	27
47	0x39	57
48	0xfa	-6
49	0xf1	-15
50	0xd6	-42
51	0x29	41
52	0xfb	-5
53	0xee	-18
54	0x58	88
55	0x15	21
56	0x5f	95
57	0xf2	-14
58	0x0d	13
59	0x32	50
60	0xce	-50
61	0xf2	-14
62	0x81	-127
63	0x1a	26
64	0x5e	94
65	0xd0	-48
66	0xd2	-46
67	0x17	23
68	0xcb	-53
69	0xa7	-89
70	0x1f	31
71	0x04	4
72	0xe0	-32
73	0x30	48
74	0xfb	-5
75	0xa5	-91
76	0x3b	59
77	0xc3	-61
78	0xc5	-59
79	0xf5	-11
80	0xea	-22
81	0x19	25
82	0x23	35
83	0xed	-19
84	0xd3	-45
85	0x00	0
86	0x43	67
87	0x06	6
88	0xda	-38
89	0xf5	-11
90	0xb6	-74
91	0x00	0
92	0xca	-54
93	0xf0	-16
94	0x0d	13
95	0x3c	60
96	0xdc	-36
97	0x28	40
98	0xda	-38
99	0xdd	-35
100	0xbb	-69
101	0x24	36
102	0xd8	-40
103	0x06	6
104	0x08	8
105	0xfc	-4
106	0xff	-1
107	0x00	0
108	0xe3	-29
109	0x25	37
110	0x49	73
111	0x22	34
112	0xe5	-27
113	0xd9	-39
114	0x0d	13
115	0xf6	-10
116	0x56	86
117	0xf0	-16
118	0x13	19
119	0xe6	-26
120	0xc4	-60
121	0xc6	-58
122	0x30	48
123	0x20	32
124	0x1d	29
125	0x12	18
126	0x9d	-99
127	0x18	24
128	0x81	-127
129	0xdf	-33
130	0xe0	-32
131	0x13	19
132	0x34	52
133	0xb7	-73
134	0x23	35
135	0x17	23
136	0xb4	-76
137	0x0a	10
138	0x16	22
139	0xfa	-6
140	0x29	41
141	0xc7	-57
142	0xd4	-44
143	0x14	20
144	0xf7	-9
145	0x17	23
146	0x64	100
147	0x1a	26
148	0xef	-17
149	0x13	19
150	0x1d	29
151	0x18	24
152	0xd5	-43
153	0xe7	-25
154	0xc7	-57
155	0x36	54
156	0xc9	-55
157	0x58	88
158	0x08	8
159	0x5d	93
160	0x2b	43
161	0xea	-22
162	0x1b	27
163	0xfe	-2
164	0xdc	-36
165	0xe9	-23
166	0x41	65
167	0x0c	12
168	0xde	-34
169	0xed	-19
170	0x1b	27
171	0x0a	10
172	0x40	64
173	0xeb	-21
174	0x06	6
175	0xff	-1
176	0x92	-110
177	0x14	20
178	0xc1	-63
179	0xe2	-30
180	0xff	-1
181	0x11	17
182	0xf2	-14
183	0x3c	60
184	0x31	49
185	0xf6	-10
186	0x08	8
187	0xf6	-10
188	0x1e	30
189	0xfa	-6
190	0x1a	26
191	0xe2	-30
192	0x24	36
193	0xb7	-73
194	0x3c	60
195	0xf7	-9
196	0xe7	-25
197	0xfd	-3
198	0x15	21
199	0x15	21
200	0xed	-19
201	0x0b	11
202	0x0b	11
203	0x1d	29
204	0x17	23
205	0xcc	-52
206	0xf0	-16
207	0x05	5
208	0x09	9
209	0x19	25
210	0x07	7
211	0xde	-34
212	0xd8	-40
213	0x9d	-99
214	0xe2	-30
215	0xea	-22
216	0x10	16
217	0x0a	10
218	0xcd	-51
219	0x08	8
220	0xe9	-23
221	0x21	33
222	0xf9	-7
223	0x0c	12
224	0x07	7
225	0xf5	-11
226	0xfb	-5
227	0xc8	-56
228	0xcb	-53
229	0x1e	30
230	0x11	17
231	0x73	115
232	0xdc	-36
233	0xbf	-65
234	0x0e	14
235	0x37	55
236	0xa0	-96
237	0xdf	-33
238	0xc5	-59
239	0xee	-18
240	0xf5	-11
241	0xd3	-45
242	0xd1	-47
243	0x22	34
244	0xe9	-23
245	0xef	-17
246	0xff	-1
247	0x1e	30
248	0xe6	-26
249	0x0a	10
250	0xf8	-8
251	0x1e	30
252	0x03	3
253	0x47	71
254	0xcc	-52
255	0x50	80
