model/weights.npz (npz, 751139 bytes, 6 tensors)

embedding f4 [68, 48]
0.30068678 1.7719467 0.42444545 0.30888906 0.17924488 -0.6166694 -0.10569748 0.048206694
0.5882973 0.3615641 0.66232014 -0.47483286 -0.46082363 -1.0000201 -0.18312143 0.13269907
-1.1023962 -0.9387666 -0.12237207 -0.56415904 0.11329295 -0.43864748 0.21166931 -0.3482917
1.4773531 1.4277816 0.34537005 -0.15738313 -0.3266952 0.7967729 0.32729262 -0.7106166
-1.0051515 -0.19912602 0.4768211 1.4915743 0.015248447 -0.20311627 -0.09029224 -0.11086248
1.2485082 0.22502674 -0.1846289 -0.1987704 -0.54023075 0.9369144 0.4539379 0.46749157
1.3460662 0.6804665 0.0042189653 0.018960962 1.6841 0.4032239 -1.2092038 -0.15067811
-0.15335637 0.056468632 -0.052316163 -1.9348047 0.24349158 -2.0764105 0.24451172 0.5939004
-1.2042234 -1.4752091 0.8051831 0.12191877 -0.856235 -1.8578659 -0.28430635 -1.0047034
1.8678133 0.19859219 1.4601595 0.29083985 0.63506615 0.3080104 -0.5520453 -0.3877956
-0.18789792 -0.028395904 2.1925848 0.89283115 -0.47397262 -0.041486047 1.0625219 -0.2024895
2.440791 0.81396306 -1.6583178 -0.55270284 0.21939728 1.8373408 1.2667012 1.8151834
-1.092029 0.25121206 0.2538786 0.2686949 -1.0342246 -1.1821746 1.0832747 0.44276434
1.0444301 0.3756108 0.21022859 1.1341027 -0.6757781 0.3651691 -0.7316496 -0.47774115
0.30714306 0.036601536 -1.6271092 -0.5206353 0.6409064 0.3851908 0.80322593 0.5726679
-0.09761156 0.34329066 -0.5562936 -0.306911 -0.78019214 -0.09081335 1.0048218 -0.9147634
-0.64351046 0.87834626 -0.8029864 0.17566252 1.0848892 -0.3430128 -1.2575395 -0.32318988
-0.14199163 -0.81644905 0.8816342 1.0277201 -0.92496854 -0.15416798 -0.04597824 -0.3660412
0.10698254 0.08871857 -0.059690557 -0.35690272 0.18416326 -1.0941726 0.21322829 -0.08011585
0.57948184 -0.10883746 0.2303181 -0.36712217 -0.92389125 -0.10894735 -1.0462613 -0.005223177
-0.21472684 -0.036425803 0.0581656 -0.16776524 -0.27418244 0.027815823 0.0005240281 0.5850634
0.17551938 0.22563967 0.3781865 -0.34854534 -0.29175207 0.2241464 0.32212177 -1.1518791
-0.7004712 -0.15557723 0.22813126 0.045403168 0.58723754 -0.12555939 -0.66995156 -0.20553282
0.48744765 0.35982955 -0.11406861 -0.84888613 -0.37112272 0.30090287 0.39889082 0.039662402
0.016659603 -0.4500809 -0.72113097 -0.14351648 -0.5382408 0.34954336 0.34515217 -0.32356527
-0.33038107 0.10396567 -0.23265746 0.2433873 0.08837936 0.28309506 0.044581123 -0.09605597
0.49660757 0.36234528 0.19302154 0.6647598 0.47105694 -0.32742104 -0.06929853 0.024726404
-0.45678583 -0.19627295 -0.1097243 -0.3617905 0.55258226 -0.38950196 -0.021452459 0.0707659
0.5077163 0.06505513 -0.46759468 -0.34866533 -0.35607472 0.46349055 0.52963597 0.2144168
-0.52981025 -0.09907255 0.69892657 0.4919021 -0.064927645 -0.30171892 -0.63056576 0.15114117
-0.50190187 0.5157343 -0.27026486 -0.86136013 0.6369917 -0.2747114 -0.5634819 1.3213601
0.11340768 0.22253937 -0.075707324 -1.4575874 -0.5561223 -0.16158982 0.32947293 -0.5489858
00000000: 9ef3 993e 26cf e23f ea50 d93e b526 9e3e
00000010: f88b 373e 0cde 1dbf ec77 d8bd 6274 453d
00000020: a79a 163f ee1e b93e d08d 293f 4b1d f3be
00000030: 13f1 ebbe a900 80bf 2f84 3bbe 44e2 073e
00000040: 521b 8dbf 0253 70bf 359e fabd ba6c 10bf
00000050: 2206 e83d 6796 e0be d7bf 583e 4a53 b2be
00000060: e819 bd3f 8cc1 b63f 58d4 b03e 0b29 21be
00000070: 9844 a7be 4ff9 4b3f e692 a73e f8ea 35bf
00000080: cea8 80bf b1e7 4bbe e521 f43e e8eb be3f
00000090: 9fd4 793c b6fd 4fbe 23eb b8bd de0b e3bd
000000a0: 1ecf 9f3f 696d 663e 5c0f 3dbe 788a 4bbe
000000b0: 904c 0abf 9fd9 6f3f 8c6a e83e 0e5b ef3e
000000c0: e64b ac3f 0d33 2e3f 3f3f 8a3b 0554 9b3c
000000d0: 9790 d73f 5d73 ce3e 31c7 9abf 5d4b 1abe
000000e0: 7409 1dbe a74b 673d 7949 56bd aea7 f7bf
000000f0: db55 793e e9e3 04c0 4861 7a3e db09 183f
00000100: fe23 9abf a7d3 bcbf 7b20 4e3f 8cb0 f93d
00000110: 3832 5bbf 8dce edbf 9a90 91be 1f9a 80bf
00000120: 8214 ef3f c05b 4b3e 82e6 ba3f f6e8 943e
00000130: b293 223f 8ab3 9d3e d752 0dbf 258d c6be
00000140: 5068 40be 879e e8bc 4f53 0c40 9590 643f
00000150: 8aac f2be 46ed 29bd b800 883f 6859 4fbe
00000160: eb35 1c40 e25f 503f c243 d4bf ef7d 0dbf
00000170: aea9 603e fc2d eb3f 4423 a23f ee57 e83f
00000180: 9bc7 8bbf de9e 803e 60fc 813e 6192 893e
00000190: 7961 84bf 7f51 97bf bfa8 8a3f 02b2 e23e
000001a0: e3af 853f 0f50 c03e 2a46 573e 472a 913f
000001b0: cbff 2cbf 72f7 ba3e 634d 3bbf 7d9a f4be
000001c0: db41 9d3e 7eeb 153d 1d45 d0bf 5b48 05bf
000001d0: 7112 243f bb37 c53e 37a0 4d3f 5d9a 123f
000001e0: 92e8 c7bd cbc3 af3e 4269 0ebf 7023 9dbe
000001f0: acba 47bf 5afc b9bd 009e 803f ef2d 6abf
00000200: 1abd 24bf 4ddb 603f 8490 4dbf e0e0 333e
00000210: a6dd 8a3f 609f afbe 0ef7 a0bf 2579 a5be
00000220: 4166 11be ce02 51bf c7b2 613f 558c 833f
00000230: bdca 6cbf 36de 1dbe ae53 3cbd c169 bbbe
00000240: a919 db3d 15b2 b53d 167e 74bd f4bb b6be
00000250: 4b95 3c3e d90d 8cbf 8458 5a3e c713 a4bd
00000260: ec58 143f 2de6 debd 82d8 6b3e 70f7 bbbe
00000270: 2384 6cbf ca1f dfbd e4eb 85bf 2f27 abbb
00000280: 5ae1 5bbe 3933 15bd 0d3f 6e3d a7ca 2bbe
00000290: a461 8cbe 02de e33c ee5e 093a b7c6 153f
000002a0: 5abb 333e 160e 673e a9a1 c13e 8974 b2be
000002b0: 8760 95be a286 653e 25ed a43e c670 93bf
000002c0: 1552 33bf a34f 1fbe 3e9b 693e acf8 393d
000002d0: 3355 163f a492 00be f281 2bbf 3277 52be
000002e0: bd92 f93e 943b b83e ce9c e9bd 9a50 59bf
000002f0: cc03 bebe f10f 9a3e 6b3b cc3e 0b75 223d
00000300: b879 883c 0171 e6be 0a9c 38bf fcf5 12be
00000310: 26ca 09bf 59f7 b23e c9b7 b03e 59aa a5be
00000320: b527 a9be f4eb d43d c23d 6ebe 853a 793e
00000330: 3d00 b53d d6f1 903e b29a 363d feb8 c4bd
00000340: 5943 fe3e 5285 b93e 70a7 453e b32d 2a3f
00000350: 602e f13e bba3 a7be 63ec 8dbd 078f ca3c
00000360: d5df e9be c7fb 48be 22b7 e0bd 9b3c b9be
00000370: 0876 0d3f cd6c c7be 11bd afbc b6ed 903d
00000380: b2f9 013f a03b 853d 9268 efbe 4384 b2be
00000390: 6d4f b6be a24e ed3e 3996 073f 1490 5b3e
000003a0: a5a1 07bf 8de6 cabd daec 323f 98da fb3e
000003b0: c9f8 84bd e77a 9abe c26c 21bf c0c4 1a3e
000003c0: a47c 00bf 2a07 043f 2860 8abe 1982 5cbf
000003d0: e311 233f f9a6 8cbe 5a40 10bf 5422 a93f
000003e0: 4942 e83d 5ce1 633e 710c 9bbd 3992 babf
000003f0: 085e 0ebf cd77 25be adb0 a83e 558a 0cbf

lstm_kernel f4 [48, 768]
0.1233735 0.26414588 0.2767296 0.05635318 -0.31164393 0.2928369 -0.10435473 0.20129974
-0.3228328 0.26192665 -0.14576508 0.20983495 -0.14459217 -0.17629781 -0.11225702 -0.065789446
-0.01828927 -0.12636223 -0.08441321 0.04242813 -0.1767113 0.23575772 -0.24601625 -0.024805
-0.22219753 0.15441284 -0.11572795 0.070925936 -0.145534 -0.03759974 0.11251132 -0.079217136
-0.16796845 0.03063304 -0.064491846 -0.37237355 -0.39049703 0.15823151 -0.03942739 0.1586711
0.039584987 0.03869369 0.11820049 -0.33050057 0.023488546 0.019552795 0.05597277 0.18183601
-0.1674472 0.01643004 -0.1751585 0.027223371 -0.0659932 -0.35069644 -0.082580395 0.29117212
-0.21601638 -0.08649544 -0.0005571723 -0.17120147 0.05933559 0.01630563 0.06924666 0.016779387
0.19245537 -0.08041476 0.23595865 0.1934787 -0.16730875 -0.26493323 -0.2521757 -0.04759008
-0.26053345 0.10417232 -0.0249158 0.2463021 0.12933365 -0.01337441 0.18329012 0.47792226
-0.08233934 0.039518982 -0.13212371 -0.024928648 0.30982876 -0.12291648 -0.091830224 -0.044530068
-0.090592556 0.15233861 0.14522977 -0.12804882 0.15429185 -0.002794224 -0.18247332 -0.1591126
-0.060868055 -0.1199271 -0.15518859 -0.03638026 -0.3737274 -0.124449626 0.18247902 -0.07815671
0.28792414 -0.18644352 -0.07778292 -0.12775183 0.19692336 0.30816922 -0.09786208 -0.03581703
-0.04680884 0.07574478 0.20373957 0.05231749 -0.260917 -0.032776464 -0.024526961 -0.35575622
0.09276898 0.31995967 0.08384372 0.014420399 -0.27593398 0.19726247 -0.21034066 -0.13181233
0.27582923 -0.063286446 -0.22072563 0.5322198 -0.089611836 0.20136368 0.17517437 0.061806083
-0.03584886 -0.15431337 0.28099158 0.05457251 -0.031451724 0.031689856 -0.034662645 0.012335993
0.06961183 0.016634062 -0.10614028 -0.040530905 -0.06384735 0.12044688 0.12751202 -0.025720127
-0.36798885 -0.5829261 -0.05836664 0.28743464 -0.11069386 0.46846086 -0.11622828 0.4855317
-0.06343263 0.106703 -0.176152 0.3208292 -0.24143958 -0.23793833 -0.024808718 -0.31006315
-0.25815773 -0.03273099 -0.015884839 0.14167412 0.1372932 -0.19688582 -0.036814783 0.1673852
-0.027752567 -0.25880674 0.51979995 -0.13127853 -0.21766043 -0.24159168 -0.3109496 0.2731989
0.053447768 -0.015196873 0.14125079 0.1944868 0.010016628 -0.0854181 -0.012623277 0.09911452
0.15920375 0.39681613 -0.06462682 0.0028704493 0.22840099 -0.0365536 -0.27059206 -0.04840016
-0.028259251 -0.5985356 0.03522764 0.034850027 0.02317189 0.13546598 -0.21995322 -0.09569955
-0.22341453 0.13111414 -0.29583684 0.46232197 0.19447915 -0.0025661536 -0.3056849 -0.7620263
0.33614245 -0.086712785 -0.24691969 -0.19587283 0.40113482 0.08360209 0.05077736 -0.07251027
0.0745219 -0.049261775 0.025275193 -0.10908 -0.17509024 0.03253444 0.10435208 0.18496165
0.14660984 -0.09047319 0.22381519 -0.0346781 0.21768606 0.17677277 -0.40913096 0.105022214
0.10145469 0.22496064 0.07221811 -0.14033693 -0.18978104 0.23943327 0.03110813 -0.4206923
0.5496384 0.088961795 0.35576016 -0.30644804 0.29124317 0.055010427 0.23364569 0.27428854
00000000: 3fab fc3d 213e 873e 81af 8d3e 98d2 663d
00000010: cb8f 9fbe b8ee 953e efb7 d5bd 8521 4e3e
00000020: 574a a5be 401b 863e 7143 15be f9de 563e
00000030: f80f 14be 6a87 34be 02e7 e5bd 9ebc 86bd
00000040: 61d3 95bc 1a65 01be d5e0 acbd 1ec9 2d3d
00000050: cff3 34be 796a 713e afeb 7bbe db33 cbbc
00000060: c087 63be 661e 1e3e c702 edbd 9e41 913d
00000070: dd06 15be 2f02 1abd 566c e63d 983c a2bd
00000080: ecff 2bbe 24f2 fa3c 4d14 84bd bfa7 bebe
00000090: 3aef c7be 7107 223e 9d7e 21bd ad7a 223e
000000a0: de23 223d 467d 1e3d 1913 f23d 5f37 a9be
000000b0: 0d6b c03c 2f2d a03c b443 653d 3833 3a3e
000000c0: 4777 2bbe 4b98 863c c05c 33be 8c03 df3c
000000d0: 7127 87bd 7c8e b3be e91f a9bd 8314 953e
000000e0: 6633 5dbe 8524 b1bd 330f 12ba 704f 2fbe
000000f0: e009 733d 6293 853c 31d1 8d3d ed74 893c
00000100: 0513 453e 7eb0 a4bd 259f 713e 481f 463e
00000110: fc52 2bbe 54a5 87be 2c1d 81be d1ed 42bd
00000120: a464 85be 4c58 d53d 381c ccbc 9e36 7c3e
00000130: 0a70 043e 5720 5bbc 68b0 3b3e 3ab2 f43e
00000140: 87a1 a8bd a8de 213d 704b 07be 2a37 ccbc
00000150: e0a1 9e3e a3bb fbbd 7c11 bcbd 2965 36bd
00000160: 9788 b9bd a7fe 1b3e 1db7 143e 3b1f 03be
00000170: affe 1d3e 4d1f 37bb 49da 3abe 6aee 22be
00000180: c850 79bd 579c f5bd c2e9 1ebe 7803 15bd
00000190: 3359 bfbe 72df febd c8db 3a3e a010 a0bd
000001a0: cb6a 933e 0deb 3ebe a74c 9fbd 60d1 02be
000001b0: 47a6 493e 5bc8 9d3e ea6b c8bd e1b4 12bd
000001c0: a0ba 3fbd 1420 9b3d 1ba1 503e dd4a 563d
000001d0: ea96 85be 9d40 06bd c4ec c8bc ae25 b6be
000001e0: aafd bd3d c1d1 a33e 42b6 ab3d 8a43 6c3c
000001f0: 3847 8dbe 2cff 493e 8b63 57be d0f9 06be
00000200: 7d39 8d3e 539c 81bd e605 62be 8f3f 083f
00000210: 6986 b7bd 4832 4e3e e960 333e 6028 7d3d
00000220: 41d6 12bd 5304 1ebe 21de 8f3e 6d87 5f3d
00000230: 86d3 00bd 39cd 013d 6bfa 0dbd e81c 4a3c
00000240: a690 8e3d 2844 883c 1360 d9bd bc03 26bd
00000250: 66c2 82bd dbac f63d 8392 023e 04b3 d2bc
00000260: 0969 bcbe a53a 15bf dc11 6fbd a22a 933e
00000270: 76b3 e2bd 1ada ef3e 1809 eebd 9c97 f83e
00000280: f7e8 81bd 1a87 da3d 3161 34be ba43 a43e
00000290: f03b 77be 1ba6 73be a73b cbbc 99c0 9ebe
000002a0: 402d 84be ee10 06bd ec20 82bc 0513 113e
000002b0: 9796 0c3e 709c 49be 19cb 16bd 0767 2b3e
000002c0: 5a59 e3bc 5182 84be 9c11 053f e16d 06be
000002d0: 60e2 5ebe cf63 77be c934 9fbe bae0 8b3e
000002e0: 0cec 5a3d 4efc 78bc 0ca4 103e 8c27 473e
000002f0: c81c 243c afef aebd dcd1 4ebc 8efc ca3d
00000300: 4f06 233e 7c2b cb3e 115b 84bd 261e 3c3b
00000310: f3e1 693e 3ab9 15bd 0b8b 8abe 3f3f 46bd
00000320: f27f e7bc a139 19bf dc4a 103d e7be 0e3d
00000330: fad2 bd3c 98b7 0a3e 6b3b 61be 20fe c3bd
00000340: c7c6 64be c942 063e ed77 97be 77b5 ec3e
00000350: 8b25 473e ea2c 28bb bb82 9cbe 2814 43bf
00000360: dd1a ac3e 7996 b1bd 84d8 7cbe e392 48be
00000370: 8b61 cd3e 9337 ab3d ecfb 4f3d 4480 94bd
00000380: f09e 983d b7c6 49bd ec0d cf3c 5665 dfbd
00000390: db4a 33be d542 053d 8bb6 d53d 9666 3d3e
000003a0: e420 163e 024a b9bd cf2f 653e a00a 0ebd
000003b0: 18e9 5e3e ec03 353e 9d79 d1be e315 d73d
000003c0: 7ac7 cf3d 155c 663e 17e7 933d 7cb4 0fbe
000003d0: f655 42be ff2d 753e 7ad6 fe3c fb64 d7be
000003e0: 1ab5 0c3f 9a31 b63d 3226 b63e c2e6 9cbe
000003f0: d31d 953e 9d52 613d d140 6f3e 8c6f 8c3e

lstm_recurrent f4 [192, 768]
0.051678162 -0.28743806 -0.042222083 -0.105308846 0.61929107 -0.1791491 0.049070887 -0.1828143
0.09755144 0.31330058 0.33798176 0.40123397 -0.21342622 0.14725061 0.13441052 -0.07390142
-0.059435904 -0.26528034 0.4619775 -0.18783283 -0.06283781 -0.21336462 0.61935353 0.003511789
0.22957261 -0.07905114 0.1713148 -0.0583914 -0.39765537 -0.14196648 0.07246682 0.02532876
-0.33580372 -0.19931819 -0.18701288 0.6223349 0.24939352 -0.14857005 0.008552109 -0.6221572
-0.50451803 -0.33578637 0.05277227 0.027183767 0.17370687 -0.33833316 -0.46404853 -0.06363571
0.33032733 -0.6738272 -1.0395315 0.17158386 -0.13605498 -0.3815933 -0.24225657 -0.2130285
-0.47997484 -0.21966279 -0.24253485 -0.3443997 -0.5796225 -0.18998493 0.28101248 0.36597297
-0.026975814 -0.009812109 -0.25116587 0.08385665 0.08126803 -0.26979882 -0.106258936 -0.14936611
-0.24317339 0.14523654 -0.42355645 -0.04485513 0.004719303 0.47400573 -0.014636473 -0.18029347
0.020721495 -0.23430355 -0.1724103 0.03180413 -0.027679125 0.11991872 0.18501078 0.3042036
0.090156086 -0.072251566 0.007999937 0.017406182 0.23316118 -0.05712497 0.23487394 -0.16569611
-0.09122752 0.0031168712 -0.10853091 0.28981766 -0.07815015 -0.1684526 0.1330327 -0.3056297
-0.10006228 0.17367007 0.13993713 -0.06289163 0.25104085 -0.026723823 0.05846255 -0.091345236
-0.43524998 -0.06877058 0.28569642 -0.108976796 -0.14427422 -0.044281345 0.15644902 -0.08471319
0.18224709 -0.12245096 0.16433668 -0.10296801 0.078340515 -0.45609885 0.12403811 0.36884877
-0.14374074 -0.09001246 -0.11467997 -0.1169691 -0.055018567 0.47142842 0.4848634 -0.23262867
0.12362737 0.0065069683 -0.010352183 -0.10055008 0.11675065 -0.109450854 -0.09445918 -0.12673737
-0.1872551 -0.18348072 -0.15582249 0.17349528 -0.045280285 -0.103420496 -0.12522191 -0.10361163
0.42395318 0.11418415 0.25307438 -0.1968989 0.12081907 0.00059014076 -0.39315408 -0.01918738
-0.24591357 -0.2825904 0.06583739 -0.21422663 0.061823856 -0.07918433 0.34204176 0.08060705
0.14899878 -0.07853344 -0.0011986373 -0.22213024 0.26789507 -0.093373224 0.1893448 0.04919284
0.061565943 -0.27091023 -0.23809303 -0.50998956 -0.110167295 -0.08593765 -0.10499998 -0.0068970136
-0.090504095 -0.44215572 -0.053017717 0.060464628 -0.23950239 0.10279 -0.09550067 -0.38558063
-0.1184904 -0.060948104 -0.098866284 -0.21035637 -0.0014511957 -0.02789339 -0.15403943 -0.04932278
0.48179683 -0.07560031 -0.30448294 -0.3137554 -0.041027885 -0.07380871 -0.18373549 -0.079981685
0.116886266 -0.23088528 -0.21254039 -0.15443532 -0.12853979 0.3725578 0.1340485 -0.64599884
-0.05827553 -0.15874942 0.10975475 -0.14059505 0.22932445 -0.24084522 -0.24344304 -0.039691117
-0.049964156 0.02458496 -0.23762605 -0.03588788 -0.13543911 0.24225114 -0.023406833 0.15201232
-0.2651045 0.2851173 -0.2031999 0.13978764 -0.22951508 -0.14501174 0.11074545 -0.023653612
-0.50304246 -0.22557367 -0.10665043 0.1800736 -0.1487896 -0.1539598 -0.17854913 -0.31214377
0.56639224 -0.029572126 -0.12781392 0.3146 0.28220707 -0.009115953 0.44041115 -0.081118345
00000000: 7bac 533d 152b 93be 10f1 2cbd 2aac d7bd
00000010: dc89 1e3f dd72 37be 8efe 483d ac33 3bbe
00000020: 0dc9 c73d ef68 a03e f20b ad3e 8a6e cd3e
00000030: 678c 5abe ddc8 163e e9a2 093e a159 97bd
00000040: 1073 73bd d3d2 87be 5188 ec3e 4057 40be
00000050: 1cb1 80bd 417c 5abe f48d 1e3f 0b26 663b
00000060: 1515 6b3e 90e5 a1bd 266d 2f3e d22b 6fbd
00000070: 7c99 cbbe a95f 11be 7c69 943d 427e cf3c
00000080: 77ee abbe 111a 4cbe 4e80 3fbe 5751 1f3f
00000090: 0461 7f3e bf22 18be 251e 0c3c b245 1fbf
000000a0: 1828 01bf 31ec abbe bc27 583d 7eb0 de3c
000000b0: 37e0 313e 013a adbe c597 edbe 7053 82bd
000000c0: aa20 a93e f07f 2cbf 5e0f 85bf aeb3 2f3e
000000d0: ff51 0bbe 3260 c3be 1b12 78be 2524 5abe
000000e0: 43bf f5be 48ef 60be 0e5b 78be 2855 b0be
000000f0: 2462 14bf 698b 42be dee0 8f3e cf60 bb3e
00000100: 62fc dcbc f8c2 20bc d098 80be 09bd ab3d
00000110: da6f a63d 1223 8abe 499e d9bd 6ef3 18be
00000120: 7202 79be e3b8 143e 64dc d8be 03ba 37bd
00000130: 62a4 9a3b e1b0 f23e d1cd 6fbc da9e 38be
00000140: 20c0 a93c 45ed 6fbe 538c 30be 0c45 023d
00000150: 55bf e2bc f297 f53d 7773 3d3e 93c0 9b3e
00000160: c1a3 b83d a1f8 93bd 2b12 033c 6997 8e3c
00000170: cec1 6e3e dffb 69bd cb82 703e 3eac 29be
00000180: 7ed5 babd 6c44 4c3b 7445 debd fb62 943e
00000190: 300d a0bd d77e 2cbe b939 083e 7f7b 9cbe
000001a0: 74ed ccbd 91d6 313e ae4b 0f3e 54cd 80bd
000001b0: 6d88 803e ebeb dabc 6d76 6f3d 3613 bbbd
000001c0: 16d9 debe 97d7 8cbd cd46 923e 3a2f dfbd
000001d0: 9fbc 13be 5b60 35bd 2c34 203e 1c7e adbd
000001e0: fb9e 3a3e 92c7 fabd e047 283e e4e0 d2bd
000001f0: fe70 a03d ca85 e9be b107 fe3d bfd9 bc3e
00000200: c630 13be 7458 b8bd 55dd eabd 7f8d efbd
00000210: 265b 61bd 115f f13e 0440 f83e 3636 6ebe
00000220: 5930 fd3d 6838 d53b 349c 29bc 33ed cdbd
00000230: f71a ef3d c527 e0bd d173 c1bd 71c7 01be
00000240: cdbf 3fbe 5fe2 3bbe ee8f 1fbe bfa8 313e
00000250: d277 39bd 20ce d3bd 2c3a 00be 5632 d4bd
00000260: 6410 d93e 61d9 e93d f792 813e de9f 49be
00000270: fd6f f73d adb3 1a3a 7e4b c9be da2e 9dbc
00000280: c4d0 7bbe b0af 90be c1d5 863d 3a5e 5bbe
00000290: 033b 7d3d 652b a2bd 1920 af3e 4f15 a53d
000002a0: 2393 183e 24d6 a0bd 981b 9dba 1c76 63be
000002b0: 8b29 893e 763a bfbd 9ae3 413e 6e7e 493d
000002c0: 922c 7c3d bfb4 8abe a9ce 73be ad8e 02bf
000002d0: 649f e1bd 1400 b0bd 3b0a d7bd 5800 e2bb
000002e0: 365a b9bd 3c62 e2be 1b29 59bd c2a9 773d
000002f0: 1d40 75be 9083 d23d db95 c3bd d36a c5be
00000300: 18ab f2bd b8a4 79bd 687a cabd a967 57be
00000310: 0c36 beba ae80 e4bc 83bc 1dbe af06 4abd
00000320: 13ae f63e 56d4 9abd 30e5 9bbe 8ca4 a0be
00000330: db0c 28bd 0529 97bd 2825 3cbe 70cd a3bd
00000340: 1162 ef3d 316d 6cbe 30a4 59be 4b24 1ebe
00000350: ef9f 03be e5bf be3e 0344 093e 2e60 25bf
00000360: 52b2 6ebd 358f 22be 19c7 e03d 26f8 0fbe
00000370: 07d4 6a3e 21a0 76be 2249 79be 2793 22bd
00000380: 37a7 4cbd 6666 c93c 3e54 73be 2bff 12bd
00000390: 8db0 0abe af10 783e b0bf bfbc 1ea9 1b3e
000003a0: c7bb 87be e5fa 913e a213 50be 7e24 0f3e
000003b0: 0006 6bbe f57d 14be 83ce e23d 38c5 c1bc
000003c0: 64c7 00bf c9fc 66be 8a6b dabd 3765 383e
000003d0: 4d5c 18be a3a7 1dbe 95d5 36be 4fd1 9fbe
000003e0: 15ff 103f 3e41 f2bc a7e1 02be 4013 a13e
000003f0: 727d 903e 145b 15bc 927d e13e 6021 a6bd

lstm_bias f4 [768]
0.20486255 0.10592335 -8.678739e-05 0.10929294 0.090653494 0.052891534 0.27220196 0.00101371
0.16615449 0.3057822 0.12120156 0.07361179 0.028317643 0.00884876 0.22230275 -0.0153178
-0.044889495 0.027211778 0.2643858 0.003779467 0.14240503 0.08572669 -0.112854145 0.30387542
0.16147447 0.0037533503 0.28300753 0.047995176 -0.011213605 -0.035605844 0.2798007 0.06764495
0.30139923 0.21150978 0.03429385 0.04370558 0.020484986 0.121905856 -0.032384742 0.08701819
-0.025619276 0.20526463 -0.037572827 0.0030203233 0.06531148 0.045648277 0.11919724 0.23463784
-0.06909054 0.051119845 0.23973595 0.04089398 0.0007535785 0.11089567 0.14200588 0.097033866
0.10237564 0.14600895 0.16383734 0.09780799 0.14570206 0.069754325 -0.054237466 -0.028161995
-0.002644068 -0.1265277 0.082820505 0.13806026 0.29131418 0.040605526 -0.05576361 -0.07161926
-0.027561652 0.10510448 0.11389377 -0.030646954 0.0747175 0.08344683 -0.07372191 0.20280164
0.04179036 0.035898045 0.0047165547 0.15313147 0.06614796 0.29679188 0.009938908 0.16711995
0.1126715 0.0930106 -0.13515322 -0.0032339704 -0.03121856 -0.064406656 0.01806933 0.1239117
0.10929466 0.033293586 0.010384555 0.1105733 0.08747168 -0.12801515 0.014744739 0.16988496
0.043400552 0.13957663 0.10888879 0.0032547016 -0.18069173 0.074522704 0.11978683 0.1290763
0.11847578 0.19497047 0.020248858 0.19343089 0.13854039 -0.008818969 -0.17998603 0.082414985
-0.029558487 0.020932173 0.08176524 0.054649137 0.2152103 0.06655912 0.15876673 0.26284355
0.08642609 -0.06870836 -0.0626374 0.100813344 0.036550295 0.26855695 0.09937127 0.1610603
0.21817929 0.09091757 0.11296148 0.15780962 -0.05412857 -0.014891534 0.028479708 0.015958687
-0.05915461 0.0030142237 -0.17525138 -0.23463222 0.16201709 0.014011257 0.085949115 0.027753433
0.108368576 -0.0044307383 0.15557759 0.13045019 0.1130422 0.1925072 0.26764217 0.14918509
0.106653735 -0.016624793 0.02753636 0.012088319 0.018541433 0.0050117197 0.017103996 0.30166027
0.34563434 0.065160185 0.014300645 -0.0015822416 -0.059111476 0.38406283 0.37308097 -0.04913126
-0.045511354 0.13651758 0.2456794 0.25368136 0.028742125 0.0050643682 0.1750939 0.12019827
0.016246025 0.02595237 0.16345304 -0.17386657 0.025779523 0.046398528 0.17737056 -0.047231194
1.171723 1.1619945 1.0534884 1.096833 0.8640065 1.0873802 0.96952766 1.0650507
0.7710781 0.9143515 0.94570726 1.021734 1.0678388 1.0658029 1.1182663 1.0785979
1.005393 0.9347225 0.7678843 1.0944986 0.9405562 1.0639266 0.99458545 0.86114883
1.054019 0.99939525 0.84938586 1.04819 0.9265869 1.0226395 0.9130562 1.010114
0.94095755 1.0328984 1.0469643 0.9503823 1.0442629 1.0386213 1.0572672 1.0358206
0.97130084 0.9826169 1.1499683 0.9968033 1.0204855 0.92121136 1.0792247 0.7983566
1.0027748 0.9798742 0.99515885 0.979944 1.1356994 0.91214246 1.1777245 0.9481537
1.065948 1.241316 1.0637156 0.9088602 0.95561874 1.074104 0.97968066 1.013914
00000000: 7dc7 513e 57ee d83d a001 b6b8 fad4 df3d
00000010: 8aa8 b93d cba4 583d 0e5e 8b3e 77de 843a
00000020: 6724 2a3e 7c8f 9c3e 8638 f83d c7c1 963d
00000030: 67fa e73c 64fa 103c 55a3 633e 83f7 7abc
00000040: 0cde 37bd 3ceb de3c 935d 873e efb0 773b
00000050: a0d2 113e 7a91 af3d 1320 e7bd 8f95 9b3e
00000060: 9059 253e c5fa 753b 5de6 903e 9796 443d
00000070: 45b9 37bc 6fd7 11bd 0a42 8f3e 6f89 8a3d
00000080: 0051 9a3e 0596 583e b577 0c3d 9f04 333d
00000090: 21d0 a73c c7a9 f93d dda5 04bd 9836 b23d
000000a0: 84df d1bc e430 523e f7e5 19bd 9ef0 453b
000000b0: 06c2 853d b0f9 3a3d af1d f43d e744 703e
000000c0: 577f 8dbd 0b63 513d 577d 753e 7280 273d
000000d0: cc8b 453a 451d e33d fd69 113e b1b9 c63d
000000e0: 52aa d13d 5f83 153e fac4 273e 8e4f c83d
000000f0: ec32 153e 5bdb 8e3d 1b28 5ebd fcb3 e6bc
00000100: 1a48 2dbb 7a90 01be cc9d a93d ab5f 0d3e
00000110: 2227 953e fb51 263d 6268 64bd 1ead 92bd
00000120: f9c8 e1bc 0541 d73d 2341 e93d 520f fbbc
00000130: 7d05 993d 2ce6 aa3d 83fb 96bd 3cab 4f3e
00000140: 5e2c 2b3d d409 133d 548d 9a3b 7fce 1c3e
00000150: 9578 873d 1bf5 973e cdd6 223c 7e21 2b3e
00000160: 51c0 e63d 577c be3d 9b65 0abe 05f1 53bb
00000170: 11be ffbc a3e7 83bd 2206 943c 6bc5 fd3d
00000180: e1d5 df3d db5e 083d fb23 2a3c 4174 e23d
00000190: 5a24 b33d 6716 03be eb93 713c 53f6 2d3e
000001a0: c7c4 313d 2ded 0e3e 1601 df3d d54c 553b
000001b0: 4107 39be 5c9f 983d cc52 f53d 942c 043e
000001c0: 6ea3 f23d 57a6 473e efe0 a53c bf12 463e
000001d0: 88dd 0d3e 707d 10bc 424e 38be 30c9 a83d
000001e0: a424 f2bc f379 ab3c 8974 a73d c6d7 5f3d
000001f0: 1760 5c3e 2650 883d bf93 223e 6e93 863e
00000200: 2900 b13d f8b6 8cbd 0a48 80bd 3a77 ce3d
00000210: c3b5 153d 4c80 893e 2a83 cb3d feec 243e
00000220: 646a 5f3e fe32 ba3d 5958 e73d d898 213e
00000230: ebb5 5dbd 9ffb 73bc 474e e93c cbbb 823c
00000240: 1b4c 72bd 488a 453b 1975 33be 6e43 70be
00000250: cfe7 253e 798f 653c 1706 b03d 2b5b e33c
00000260: 58f0 dd3d ba2f 91bb bb4f 1f3e bc94 053e
00000270: ab82 e73d 9c20 453e 6508 893e fac3 183e
00000280: 466d da3d b830 88bc ef93 e13c 160e 463c
00000290: 34e4 973c 5a39 a43b ae1d 8c3c 3773 9a3e
000002a0: fcf6 b03e b472 853d 414d 6a3c 3863 cfba
000002b0: e01e 72bd e2a3 c43e 7804 bf3e dc3d 49bd
000002c0: 1d6a 3abd 44cb 0b3e 6193 7b3e 86e2 813e
000002d0: 9b74 eb3c 00f3 a53b d14b 333e 832a f63d
000002e0: 6216 853c 119a d43c 3c60 273e 140a 32be
000002f0: 942f d33c 620c 3e3d a1a0 353e 7f75 41bd
00000300: 05fb 953f 3cbc 943f b5d8 863f 0665 8c3f
00000310: 882f 5d3f 462f 8b3f f732 783f 9553 883f
00000320: 6065 453f f112 6a3f df19 723f 2ec8 823f
00000330: f1ae 883f 3b6c 883f 5a23 8f3f 7f0f 8a3f
00000340: b8b0 803f f949 6f3f 1194 443f 8818 8c3f
00000350: 4bc8 703f bf2e 883f 279d 7e3f 4074 5c3f
00000360: 18ea 863f 5ed8 7f3f 5a71 593f 172b 863f
00000370: cd34 6d3f dae5 823f 0dbe 693f 6a4b 813f
00000380: 98e2 703f 0436 843f ed02 863f 414c 733f
00000390: 68aa 853f 8bf1 843f 8854 873f c595 843f
000003a0: 2ca7 783f c88c 7b3f 2932 933f 802e 7f3f
000003b0: 459f 823f 82d4 6b3f 0924 8a3f 1961 4c3f
000003c0: ed5a 803f 09d9 7a3f bbc2 7e3f 9cdd 7a3f
000003d0: 995e 913f 2b82 693f adbf 963f 33ba 723f
000003e0: fc70 883f 71e3 9e3f d527 883f 10ab 683f
000003f0: 6ea3 743f 3d7c 893f 5acc 7a3f efc7 813f

dense_kernel f4 [192, 68]
0.19151117 -0.0037754779 0.75346285 0.2265639 0.664266 -0.20112045 -0.07467232 -0.26950428
0.085982345 0.3691081 0.483551 1.1290497 0.11443883 -0.2151678 0.3548527 0.28021872
0.19754305 0.5604081 -9.021326e-05 0.68463045 -0.0560805 1.0872582 0.153438 -0.26921922
0.40353772 0.18265955 0.79944414 -0.08229085 0.44670448 0.2739009 0.039709397 0.3603241
-0.17051594 0.04287829 -0.1646879 0.94710124 -0.08650689 -0.20125918 0.41873476 -0.68785983
0.16774826 -0.44896558 -0.026232073 -0.19022307 -0.053583805 0.24230836 0.7046672 0.38387504
-0.028887892 -0.29217756 0.07518028 0.057915073 -0.10712024 0.199465 0.16579996 -0.063916735
-0.014826185 0.16152473 0.09667832 -0.25448203 -0.33978954 -0.29732132 -0.09468759 -0.10945168
0.6094601 0.80862397 0.6156122 0.4534846 -0.07008867 -0.12117288 -0.18596393 0.14626226
-0.33187458 -0.10924928 0.25074336 -0.68568784 0.029933868 -0.090048105 -0.9181793 -0.19346681
0.048468184 -0.34444153 -0.9253356 0.30724028 -1.3445575 0.0023501273 0.59695745 -0.28525633
-0.23325117 -0.067488626 -0.22122648 -0.15292406 0.17412058 -0.13518459 0.13823885 -0.70363694
-0.26991028 -0.09886284 -0.60955054 -0.082643524 -0.004688859 0.35550022 0.18831421 0.079954214
0.2039217 0.22116537 0.20237036 0.27611646 0.24357024 -0.41518918 0.013135404 0.03736133
-0.2577838 -0.48517218 -0.19652152 0.29018554 -0.102477945 0.008293304 0.36974967 0.07659992
0.34646684 -0.12955 0.37866578 -0.2895927 0.09870463 0.15229258 -0.1453329 0.15641016
0.13018297 -0.27581525 0.09013244 -0.25401294 -0.49632564 0.24278863 -0.1808006 0.24566576
-0.8560248 -0.21857364 -0.060560204 0.018611671 -0.0044560786 -0.04891517 -0.050169107 -0.44211757
-0.27493098 -0.35480946 0.12565358 0.12238283 -0.040519044 -0.2783498 -0.2925665 0.004413904
-0.28592953 -0.5546215 -0.34404442 0.10562767 0.14879216 0.29120338 -0.22516346 -0.42210737
-0.20884225 -0.019770907 -0.28507873 -0.37119752 -0.67314 -0.06266883 -0.30238387 -0.22821186
-0.35757834 -0.64355564 -0.23096769 -0.3412996 -0.6762921 0.46017256 0.49041677 0.066779114
0.12573405 -0.34335765 -0.04055062 0.30410844 0.100647606 -0.07173577 0.085774206 -0.021828521
0.23804493 -0.029834377 0.20532617 -0.022468897 -0.03956213 -0.08497042 0.22787812 -0.17781243
0.045770835 -0.2327575 0.3332716 0.13621068 0.356229 0.03441454 -0.42840326 -0.4309145
0.1713919 -0.3288055 0.087204486 0.22963858 -0.59137297 -0.47842187 -0.6167405 -1.5909911
-0.073712714 -0.953634 -0.45120198 -0.73799837 0.08950151 0.10251341 0.1898459 0.011691785
-0.49250993 -0.039311673 -0.002363244 -0.49593157 0.1728404 -0.1113586 -0.14634697 -0.0009911787
-0.038602486 -0.5469704 -0.15852882 0.09086411 -0.40740618 0.09254325 0.28609514 0.21766438
0.022862764 -0.21551922 -0.41885146 0.065464154 0.3576981 -0.24338646 -0.30973068 -0.8879192
0.089050286 0.12969546 0.45118785 -0.34792435 -0.3175855 0.19585866 -1.4452739 -1.028976
0.2128528 0.30571544 -0.50374764 -0.4551159 -0.011680814 0.34358725 0.46974832 0.42142367
00000000: 811b 443e 026e 77bb f1e2 403f 5e00 683e
00000010: 560d 2a3f 85f2 4dbe cded 98bd 77fc 89be
00000020: 8317 b03d bdfb bc3e ff93 f73e b384 903f
00000030: e85e ea3d f354 5cbe 41af b53e d478 8f3e
00000040: ba48 4a3e e876 0f3f e030 bdb8 f143 2f3f
00000050: abb4 65bd 472b 8b3f da1e 1d3e 1ad7 89be
00000060: 7f9c ce3e 1b0b 3b3e 5fa8 4c3f 1b88 a8bd
00000070: 73b6 e43e bd3c 8c3e 52a6 223d 677c b83e
00000080: bb9b 2ebe 25a1 2f3d f2a3 28be 3a75 723f
00000090: 862a b1bd e316 4ebe 6764 d63e 9517 30bf
000000a0: 33c6 2b3e d1de e5be a5e4 d6bc d6c9 42be
000000b0: b17a 5bbd af1f 783e 1265 343f 458b c43e
000000c0: 4da6 ecbc 4c98 95be 1ef8 993d 5b38 6d3d
000000d0: db61 dbbd 8e40 4c3e 77c7 293e c7e6 82bd
000000e0: 87e9 72bc bd66 253e 48ff c53d 784b 82be
000000f0: e5f8 adbe 803a 98be 91eb c1bd 3428 e0bd
00000100: 9405 1c3f fb01 4f3f c398 1d3f 222f e83e
00000110: a68a 8fbd 7d29 f8bd 546d 3ebe c6c5 153e
00000120: 77eb a9be 16be dfbd 6f61 803e 3d89 2fbf
00000130: df37 f53c 246b b8bd cc0d 6bbf 2a1c 46be
00000140: 9386 463d a45a b0be cbe2 6cbf 994e 9d3e
00000150: 761a acbf 9804 1a3b 34d2 183f 1e0d 92be
00000160: 65d9 6ebe 7a37 8abd 3289 62be 2098 1cbe
00000170: aa4c 323e d46d 0abe 7c8e 0d3e 8d21 34bf
00000180: ae31 8abe 9a78 cabd 810b 1cbf 0241 a9bd
00000190: 00a5 99bb 2004 b63e 71d5 403e 09bf a33d
000001a0: dad0 503e 2d79 623e 2d3a 4f3e 235f 8d3e
000001b0: 7a6a 793e ad93 d4be e135 573c 3208 193d
000001c0: 3dfc 83be 7d68 f8be f03c 49be 3393 943e
000001d0: f5df d1bd a3e0 073c d44f bd3e 6be0 9c3d
000001e0: 1a64 b13e c1a8 04be 7be0 c13e 7f45 94be
000001f0: a725 ca3d 96f2 1b3e 26d2 14be fc29 203e
00000200: af4e 053e a837 8dbe 5b97 b83d fc0d 82be
00000210: 651e febe 959d 783e cb23 39be ce8f 7b3e
00000220: 7124 5bbf c5d1 5fbe fa0d 78bd 8177 983c
00000230: 4c04 92bb 465b 48bd 1f7e 4dbd 3c5d e2be
00000240: c1c3 8cbe 96a9 b5be 55ab 003e d9a3 fa3d
00000250: 4cf7 25bd dd83 8ebe 47cb 95be 83a2 903b
00000260: 5b65 92be adfb 0dbf 9726 b0be 5253 d83d
00000270: f95c 183e 9c18 953e 4091 66be 751e d8be
00000280: beda 55be 99f6 a1bc d7f5 91be 9a0d bebe
00000290: e752 2cbf 8458 80bd 0fd2 9abe 5fb0 69be
000002a0: 8214 b7be 10c0 24bf cb82 6cbe d2be aebe
000002b0: 7b21 2dbf bd9b eb3e e817 fb3e 7dc3 883d
000002c0: 6dc0 003e 93cc afbe 6818 26bd 1ab4 9b3e
000002d0: 5520 ce3d 34ea 92bd 63aa af3d bad1 b2bc
000002e0: 0dc2 733e 3967 f4bc 0641 523e b110 b8bc
000002f0: e60b 22bd f904 aebd e258 693e 7614 36be
00000300: 337a 3b3d fb57 6ebe 93a2 aa3e d07a 0b3e
00000310: a663 b63e 43f6 0c3d ac57 dbbe d3a0 dcbe
00000320: 5c81 2f3e 3259 a8be 4498 b23d 6026 6b3e
00000330: 3864 17bf b6f3 f4be b5e2 1dbf 99a5 cbbf
00000340: b1f6 96bd 5c21 74bf f203 e7be 76ed 3cbf
00000350: 914c b73d 8df2 d13d f766 423e e78e 3f3c
00000360: 432a fcbe 4705 21bd a8e0 1abb beea fdbe
00000370: 13fd 303e fa0f e4bd fbdb 15be 70ea 81ba
00000380: a41d 1ebd 4106 0cbf 6155 22be f616 ba3d
00000390: 8b97 d0be 5187 bd3d 107b 923e 69e3 5e3e
000003a0: b14a bb3c 12b1 5cbe b373 d6be 1212 863d
000003b0: 3524 b73e 4d3a 79be 0595 9ebe ac4e 63bf
000003c0: ff5f b63d e3ce 043e 1802 e73e 2423 b2be
000003d0: 919a a2be 2c8f 483e bcfe b8bf 7cb5 83bf
000003e0: 16f6 593e bc86 9c3e 9bf5 00bf f404 e9be
000003f0: e360 3fbc abea af3e da82 f03e d8c4 d73e

dense_bias f4 [68]
0.038630467 0.027407888 -0.12983069 -0.13377178 -0.13295108 0.04369398 0.020777946 -0.01804049
0.04133199 -0.12085677 -0.16205297 -0.16012949 0.015108916 -0.03502134 -0.015611234 -0.054174334
-0.03223076 -0.088279404 -0.106672905 -0.072740674 -0.06003675 -0.06841556 -0.08780333 -0.010927477
-0.0010590362 -0.04266778 -0.100215 -0.00074957847 -0.10688838 -0.033956524 0.023898032 0.011446214
-0.095205575 -0.16119546 -0.010329489 -0.12984025 -0.11985099 0.14276402 0.013583169 0.029785719
-0.010557215 0.054484427 -0.06954071 0.045047913 -0.03621989 0.10667769 -0.098650694 -0.1403124
0.0012370861 -0.023503102 0.035137374 0.036996372 -0.050686926 -0.031957183 0.025794506 0.03627394
0.082514286 -0.0033338855 -0.021919992 0.0012582339 -0.111781105 -0.023307914 -0.13252535 -0.1302019
-0.09451173 -0.1586986 -0.11998675 -0.15658127
00000000: fb3a 1e3d 8286 e03c 56f2 04be 78fb 08be
00000010: 5424 08be 75f8 323d 8336 aa3c a6c9 93bc
00000020: bc4b 293d c183 f7bd 37f1 25be fcf8 23be
00000030: 638b 773c 8972 0fbd 43c6 7fbc e8e5 5dbd
00000040: 6704 04bd d5cb b4bd 5377 dabd 10f9 94bd
00000050: 18e9 75bd 751d 8cbd 3bd2 b3bd 2909 33bc
00000060: 5ccf 8aba 69c4 2ebd 863d cdbd 5c7f 44ba
00000070: 4ce8 dabd ff15 0bbd cec5 c33c e788 3b3c
00000080: 24fb c2bd 6c10 25be 043d 29bc d8f4 04be
00000090: 7074 f5bd bb30 123e f18b 5e3c 2e01 f43c
000000a0: 2bf8 2cbc 102b 5f3d 5c6b 8ebd 2984 383d
000000b0: 4f5b 14bd d579 da3d 6009 cabd 0eae 0fbe
000000c0: b925 a23a 9489 c0bc 35ec 0f3d 8289 173d
000000d0: 189d 4fbd 89e5 02bd 004f d33c fc93 143d
000000e0: 40fd a83d 517d 5abb 8e91 b3bc 53eb a43a
000000f0: 7eed e4bd 3df0 bebc bab4 07be a653 05be
00000100: 5e8f c1bd e381 22be 9dbb f5bd d756 20be
